server/models/checkpoint.pth (torch, 319778 bytes, 30 tensors)

encoder.weight f4 [64, 1]
000000 ea da 07 3e 00 2c 3f 3d a0 29 90 3f 8c 31 88 3e
       0.13267103 0.04667282 1.1262703 0.266003
000010 6a c9 53 bf 92 84 0f 3f 56 e3 11 3f 40 7e 1b bf
       -0.8272921 0.5606166 0.5698751 -0.6073952
000020 02 c7 33 3f f6 94 88 3d a8 c3 0e bf c8 c2 7c bf
       0.70225537 0.06669037 -0.557673 -0.9873471
000030 2a 81 ce 3d f1 2d 8a 3f e7 07 e5 3e 8d b1 47 3f
       0.1008323 1.079527 0.44732592 0.78005296
000040 f3 d3 2c bf ac 89 a8 3e 80 47 07 be 77 cc 16 bf
       -0.6751091 0.32917535 -0.13210869 -0.5890574
000050 4b 76 15 be bd 0d 45 3f c6 82 6f bf 08 b3 98 3e
       -0.14595906 0.7697409 -0.9355892 0.2982409
000060 56 62 55 bf a1 65 44 3f 1c 27 ea be b0 04 cf 3e
       -0.83353174 0.76717573 -0.45732963 0.40433264
000070 34 80 a8 be d9 76 b9 3e 2d 47 24 3f b3 b5 8a bd
       -0.3291031 0.36223486 0.64171106 -0.067729376
000080 49 df 5a bd 30 00 5b 3e 6d fd 2c 3e 3c 1f 36 3f
       -0.053435598 0.2138679 0.1689355 0.7114141
000090 31 18 90 3f 04 48 ff be 5e 80 28 bd c0 af 89 3d
       1.1257383 -0.4985963 -0.041138045 0.06722975
0000a0 f8 4f 86 3e c9 21 ff be 08 4b 63 bf 51 6e 46 bf
       0.26232886 -0.49830464 -0.88786364 -0.7751208
0000b0 65 c9 65 3e 68 6c 17 bf 18 2a 16 be 09 32 2c 3f
       0.22440107 -0.5914979 -0.14664495 0.6726385
0000c0 43 5e 0c 3f 05 50 5d be f2 52 35 bf 58 fa 35 3e
       0.5483133 -0.21612556 -0.7082969 0.1777128
0000d0 d3 08 c3 3e 4e 43 7d 3f 73 17 98 3f f0 83 1a bf
       0.3809267 0.98930824 1.1882156 -0.6035757
0000e0 20 d0 74 bd 08 b4 02 bf cc 91 da 3e e0 62 a2 3f
       -0.059768796 -0.51055956 0.4268936 1.2686424
0000f0 c2 25 63 be 07 5d 8d be 4d 29 5d 3f d2 9c d0 be
       -0.22182372 -0.27610037 0.86391145 -0.40744644

encoder.bias f4 [64]
000000 f0 dc 81 3f 70 74 57 bf ea 84 92 bc 14 02 54 bf
       1.014555 -0.84162045 -0.017885644 -0.8281567
000010 6c 00 12 bf 53 16 e5 3e f6 5a 1d bf 0a bf 04 bf
       -0.57031894 0.44743595 -0.6146692 -0.51854
000020 d0 04 4c 3e 8e 1c c4 3e 38 b7 6f bf 36 24 63 bf
       0.19923711 0.38303035 -0.93638945 -0.8872713
000030 77 0f 83 3f 91 78 fa be f2 e2 42 3e 11 ff 4b bc
       1.0239094 -0.4892011 0.19031885 -0.012450949
000040 22 ba 40 3f 3b 2a 29 3f e2 b0 4a bf 98 2e 84 3f
       0.75284016 0.66080064 -0.7917615 1.0326719
000050 db 4d 95 3f 46 49 b5 3e 00 17 e9 bb 28 6f fb be
       1.1664385 0.35407466 -0.0071133375 -0.49108243
000060 6c fc dd be fe 97 21 3f a0 2a 8f be f0 a8 ca bb
       -0.43356645 0.63122547 -0.27962208 -0.0061846897
000070 ba 75 09 bf bb 89 6c 3f d3 89 b8 3e 0a ff 23 3f
       -0.5369526 0.9239766 0.36042652 0.64061034
000080 87 84 67 3f 30 06 8f 3f 7c f4 77 3f c9 5d 02 3f
       0.90436596 1.1173763 0.9685743 0.50924355
000090 2e 80 87 3e 38 cc 43 bf ca ee e0 3e f2 09 14 bf
       0.2646498 -0.7648349 0.43932182 -0.57827675
0000a0 b4 70 eb be d6 1a 37 3a c0 4f 99 bd 15 60 48 3f
       -0.45984423 0.0006984895 -0.07485914 0.7827161
0000b0 fa 2c 00 3f 78 92 6b be 00 23 26 3f 83 4c 19 3f
       0.5006863 -0.23005092 0.64897156 0.5988237
0000c0 3e dc 75 3f c5 ba 3b 3f 88 d2 1f bf f4 99 d6 be
       0.9603919 0.7333186 -0.6243062 -0.41914332
0000d0 d7 c6 42 3e 2b b9 8a bc b2 06 1b 3f c2 f9 51 bf
       0.19021164 -0.016933998 0.6055709 -0.82021725
0000e0 e0 9d 54 bf 85 6b 91 3f c6 87 4c bf 13 1c cb bc
       -0.830534 1.1360937 -0.79894674 -0.02479366
0000f0 c2 fb 67 3f 04 74 16 3f 75 95 6e bc b6 23 89 3f
       0.90618527 0.58770776 -0.0145620005 1.0714023

decoder.weight_ih_l0 f4 [192, 64]
000000 bb 62 5d 3e 4c 11 ee bd 88 85 fe 3d 00 1c dd 3c
       0.21619694 -0.11624393 0.12427813 0.02699089
000010 00 bf 52 bc 3a c6 5f 3e 7c 6c ca 3d 0c cc 6a bd
       -0.012862921 0.21852961 0.09883973 -0.0573235
000020 0f 38 0e 3e 1f 41 a6 bd e8 2e cb 3d d0 33 53 bc
       0.13888572 -0.081178896 0.09921056 -0.012890771
000030 19 de 61 3e b7 f0 f5 3d 40 1a 1a 3e 07 fd d6 3c
       0.2205738 0.12008803 0.15049076 0.0262437
000040 e0 5e cf bd a6 bc f5 3d a0 28 0d bd 5a ca a0 3d
       -0.10125518 0.119988725 -0.03446257 0.078510955
000050 db 6e fd 3d da 15 80 3c e6 e8 b7 3d 8a 6e c8 bd
       0.1237466 0.01563542 0.08979969 -0.09786709
000060 bc 47 a0 bd 5d 63 21 3e 00 fa e0 bc 48 13 a9 3d
       -0.07826182 0.1576056 -0.02746296 0.08255631
000070 3e 2b db bd 27 f7 8c bc 46 5e 3a 3e 6f 61 60 3e
       -0.10701607 -0.017207695 0.18200025 0.21912168
000080 a4 54 b1 3d 75 4b 42 3e 71 ec fb 3d 25 3b 47 3d
       0.08658722 0.18974097 0.12300957 0.04864039
000090 e9 20 01 bd 60 da 86 3d 0d 5c 26 bd 04 2b 51 bd
       -0.031525526 0.065846205 -0.04061513 -0.051066414
0000a0 64 0e be bd e4 e5 23 bd 94 a1 1b 3d ee 2d 51 3d
       -0.092800885 -0.040014163 0.03799589 0.051069193
0000b0 fd 50 96 3d 40 a2 f1 3b 27 a4 ce bd 13 b8 f8 3d
       0.07339666 0.007374078 -0.10089903 0.12144484
0000c0 19 50 01 3e 6c 33 a9 bc 84 fd d0 3d c4 a0 e0 bd
       0.12628211 -0.020654403 0.10204604 -0.109681636
0000d0 f9 6c 86 3c 86 da 4d 3d cc b8 1b 3d 70 c8 3c bd
       0.016409384 0.05025723 0.038018033 -0.04608959
0000e0 36 9e a9 3d aa 6a 10 3d 78 81 4f 3d 15 10 18 bd
       0.082821295 0.035257973 0.05066058 -0.037124712
0000f0 e2 48 82 bb 20 d6 11 be 5d 4c 50 3d ba 35 e4 bc
       -0.0039759735 -0.14241838 0.050854076 -0.02785765
000100 e2 c8 39 3e 1c ae 2f 3d dd df ab 3e 4c 59 cf 3d
       0.18143037 0.042890653 0.33569232 0.10124454
000110 66 75 cc bd 0b 3a 41 3e 5e 74 cb 3d 00 30 2d 38
       -0.099833295 0.18869798 0.09934305 4.1291118e-05
000120 61 3f 47 3e 62 23 00 3e a8 4a ec bc bc bd af bd
       0.19457771 0.12513497 -0.028844193 -0.08581111
000130 31 b7 a0 3c 1c 07 00 3f e8 2c 73 3e 73 36 dc 3e
       0.019618602 0.5001085 0.23747599 0.4301029
000140 1f 29 05 bf 05 b5 dc 3d 7a 44 f2 bd ea 53 4f be
       -0.5201587 0.10776714 -0.11829467 -0.20246854
000150 87 53 81 3c 2d 79 9c 3e 5e da ee bd 00 a3 24 3a
       0.0157869 0.305612 -0.11662744 0.00062803924
000160 9e 95 85 3d 81 c9 1f 3e 88 68 e5 bd 2b 92 b9 3e
       0.06522678 0.15604211 -0.112015784 0.3624433
000170 8e a9 c5 3d 5b 02 1e 3e 8d b4 d3 3d 79 7f 5d 3d
       0.096514806 0.15430586 0.10337172 0.054076646
000180 9d c4 bc 3d 27 57 1b 3e 30 6a 28 3d 0d 88 43 3e
       0.092171885 0.15169965 0.041116893 0.19094868
000190 3f 80 2f 3e 80 94 a0 bd 2d e1 2c bb ec 94 dc 3d
       0.17138766 -0.07840824 -0.0026379332 0.10770592
0001a0 38 89 ae 3c 6c de bd 3d 30 f7 ba 3d 58 0a cb be
       0.021305665 0.09270939 0.091291785 -0.3965633
0001b0 e5 85 5c 3e 60 2d 42 3c 06 54 c3 bd 7d cb 17 3e
       0.21535452 0.011851639 -0.095375106 0.14823718
0001c0 49 57 db 3d b8 78 e6 3b 84 91 d0 3d 9a 2e c7 3d
       0.10710008 0.0070334338 0.10184005 0.097256854
0001d0 dc a4 a7 3e 7d 3a c6 3e ce 35 b2 3d 50 15 5b 3c
       0.32742965 0.38716498 0.08701669 0.0133717805
0001e0 ee 84 c4 bd 7a 4f b9 bd d6 e1 e9 3d 8d 2f a4 3e
       -0.09595667 -0.09048362 0.11420028 0.32067528
0001f0 26 6d ff bb 9c f7 44 be e7 07 99 3e 84 2b d2 ba
       -0.007794994 -0.1923508 0.29888842 -0.0016034697
000200 da 10 e4 3d d8 5e 93 bc 92 88 05 3f a4 e0 87 bd
       0.11136027 -0.017989561 0.52161515 -0.06634644
000210 0c 13 24 bd 19 2d 33 3e b8 c0 a0 bd d8 57 9a bc
       -0.040057227 0.17497672 -0.07849258 -0.018840715
000220 26 6c 90 3e 38 83 87 bd 44 ea 62 3d 90 b7 3b 3c
       0.2820751 -0.06616825 0.055399194 0.011457339
000230 01 d4 17 3e 22 93 2d 3f 42 6c a8 3e 87 a6 3c 3f
       0.14826967 0.6780263 0.32895094 0.736916
000240 d8 01 3e be 75 aa 61 3e b4 04 0d bd d8 1d b2 bc
       -0.18555391 0.2203768 -0.034428313 -0.021742746
000250 93 72 23 3d 03 ed 86 3e 00 34 ed 39 7c 93 c8 3d
       0.03990419 0.263527 0.00045242906 0.097937554
000260 28 f6 d7 bd bd f7 8e 3e 48 0f 96 bd 92 c2 b2 3e
       -0.105449975 0.27923384 -0.073271334 0.3491407
000270 66 7d c4 bd a2 a3 0c 3e a0 7c 6b 3e cf 7a 77 3c
       -0.0959423 0.13734296 0.2299676 0.015104963
000280 a9 a4 66 bd e9 c9 02 3d 77 eb 46 3e e9 0b 55 3e
       -0.056309376 0.031930838 0.1942576 0.20805325
000290 72 13 af 3e b2 25 a0 3d f8 7b 4b bd a0 47 73 bd
       0.34194523 0.0781969 -0.049678773 -0.05939448
0002a0 a0 27 49 3c 4e a2 cc 3d 3c 63 87 bd c6 8c ca be
       0.012277514 0.09991895 -0.06610724 -0.39560527
0002b0 63 63 a4 3d f0 92 d4 bc 32 19 8a be 69 a4 39 3e
       0.08026769 -0.025948972 -0.26972347 0.18129124
0002c0 39 d0 9e 3d ad f9 af 3d 04 e9 bf 3d 20 ec b9 3d
       0.07754559 0.08592544 0.09370616 0.090782404
0002d0 31 19 65 3e a2 fa 0a 3f cc 64 6f 3e 00 7c ec 3a
       0.22372891 0.54288685 0.23378295 0.0018042326
0002e0 84 8d b7 bd 09 22 9c 3c e8 e1 5a 3d 9b bd ee 3e
       -0.08962539 0.019059198 0.053438097 0.46629032
0002f0 8d 06 9d 3d 2d 73 87 be 2c 06 00 3f 5a 49 8a 3d
       0.07667265 -0.2645506 0.5000942 0.06752272
000300 2e 10 46 bc b4 12 c2 3d 3d 0c 80 3e 14 6c b3 bd
       -0.0120888185 0.094762236 0.25009337 -0.08760849
000310 50 14 8c 3d 6d 6f 99 3b 80 6b e5 bb 40 51 ba 3b
       0.06839812 0.0046824724 -0.0070013404 0.0056859553
000320 51 88 19 3e ce cc f3 3d b4 a6 e9 bd d0 18 e7 3c
       0.14993407 0.11904298 -0.11408749 0.028210074
000330 2a 5d ab 3c cb 97 40 3f 1d bf d9 3d 1c d0 a8 3e
       0.020918448 0.7523162 0.10632155 0.32971275
000340 bf 06 1d bf b9 34 91 bd 48 3d f4 3d d5 74 5a be
       -0.6133842 -0.07090134 0.11925751 -0.2133363
000350 6e 71 24 bd 7e 94 0d 3e 7c a4 12 3d c8 26 49 3d
       -0.040147237 0.13826177 0.035801396 0.04910925
000360 84 89 73 bd de ac 34 3e d0 59 b2 3c 5f 8b 86 3e
       -0.059457317 0.17644069 0.021771342 0.26278207
000370 16 a3 e4 bd b4 e8 6a 3d 4c 06 c4 3d 4a ba 27 3d
       -0.11163919 0.05735083 0.095715135 0.040949143
000380 ae 32 31 be 27 28 eb bd ca 67 61 bd 4b a1 37 3e
       -0.17304489 -0.11482268 -0.05503062 0.17932622
000390 96 07 8f 3d ee be 97 bd c9 c1 4d bc 64 74 1e bd
       0.06983869 -0.07409464 -0.012558409 -0.038685217
0003a0 80 54 c2 bb 3a b7 48 bd c0 30 f7 3d 27 29 e4 be
       -0.0059304833 -0.049002863 0.12069845 -0.44562647
0003b0 06 06 c4 bd c0 22 0d bd 35 b3 42 be a3 15 38 3d
       -0.095714614 -0.03445697 -0.19013675 0.04494251
0003c0 28 29 5d bc 12 01 2c 3b b0 0e f6 bc 88 58 d9 bc
       -0.013498582 0.0026245755 -0.0300363 -0.026531473
0003d0 ae c8 f4 bc 56 a3 67 3e 35 e1 42 3e 92 de cd bd
       -0.029880848 0.22620901 0.19031222 -0.100522175
0003e0 20 61 0f bd 1c b0 dc bd 70 39 db 3c 45 e2 83 3e
       -0.035004735 -0.10775778 0.026760787 0.25758567
0003f0 91 be c0 bd 46 64 97 be db a6 78 3e a8 75 05 be
       -0.09411348 -0.2956869 0.242824 -0.13033164

decoder.weight_hh_l0 f4 [192, 64]
000000 18 c5 a2 3e 9a 67 91 3d 58 6d 98 3d cb 0a ec 3d
       0.31790996 0.070998386 0.07442731 0.11525496
000010 06 71 3e be 26 ea e0 3d 13 06 1a be c5 00 40 3e
       -0.18597803 0.1098216 -0.1504138 0.18750294
000020 00 b6 85 bd d7 3a a9 bc 84 4c 26 bd 9b 17 c5 bd
       -0.06528854 -0.02065794 -0.040600315 -0.09623643
000030 57 24 41 3e a1 18 cf bd d1 bf 98 3d 76 3c ec 3d
       0.18861519 -0.101121195 0.07458461 0.115349695
000040 d9 5d 5b bd d2 4f af 3d 82 83 dc 3d 3f d8 6d 3e
       -0.053556297 0.085601464 0.107672706 0.23227023
000050 46 40 10 bd 4f b5 3d 3d 06 ab 80 bd 3b 9b 4a be
       -0.035217546 0.046315487 -0.0628262 -0.19785778
000060 83 73 82 bd 79 cc 32 3d cc d9 89 3c 96 ee 99 3b
       -0.06369688 0.04365203 0.016827486 0.004697631
000070 98 9e db bc 43 b1 d4 3d 39 ec 54 3c cf 00 c6 bd
       -0.026809022 0.103853725 0.012995773 -0.09668123
000080 85 6a 51 bd 8e 04 ef bd ff e9 e8 bc f2 c8 8e bc
       -0.051126976 -0.116707906 -0.02843189 -0.017429803
000090 7b 21 30 3e 05 16 a6 3d f6 9f a3 3d 37 89 6b 3e
       0.17200272 0.08109669 0.079894945 0.23001562
0000a0 27 55 83 bd 76 4a 73 bc de 03 60 3e 5d 04 6e bc
       -0.06412726 -0.014849296 0.21876475 -0.0145274075
0000b0 24 a0 2e 3d af c0 4f be 09 b9 75 3d 6e 62 a9 3d
       0.04263319 -0.20288347 0.059990916 0.08270727
0000c0 2c a3 33 be 93 b6 52 3e ac 00 75 3c da 5b 4a be
       -0.17542714 0.20577459 0.0149537735 -0.19761601
0000d0 e0 20 cf 3b b5 52 80 3c 50 02 0c 3e 06 18 8d bc
       0.0063210577 0.015664438 0.13672757 -0.01722337
0000e0 68 59 6b bd 33 87 08 3e 6d 8d d4 3d 9e 14 a5 3d
       -0.05745831 0.13332824 0.10378537 0.08060573
0000f0 8e dc 1d 3d 85 48 16 3e 20 95 5f 3d 4d 82 d3 3d
       0.038540415 0.14676102 0.054585576 0.10327587
000100 57 71 d2 3e 72 48 2f bf 6d 0e b4 bf ba aa 81 3c
       0.41102096 -0.6846992 -1.4066902 0.01582848
000110 29 cd f2 be 34 ac 10 3e 86 b0 da 3d a5 78 e0 3b
       -0.4742215 0.1412819 0.106782004 0.0068503194
000120 c7 02 d1 3e 19 6f c1 be fe 47 ce 3c e5 43 5b 3f
       0.4082243 -0.37780073 0.025180813 0.85650474
000130 09 9c 42 3e 68 08 5c 3e aa 90 50 bd f8 a3 42 bf
       0.19004835 0.21487582 -0.050919212 -0.76031446
000140 cb be 29 3d 9c a9 a3 bc 42 8c 16 3e c0 29 b1 3b
       0.04144172 -0.019978337 0.14701942 0.0054065883
000150 25 2c 6a be b5 0d 9b 3d 3d ff 33 bb ad 9c b4 bd
       -0.22868402 0.07570974 -0.0027465366 -0.08818946
000160 83 ef f2 bd 5c a9 10 3c b7 38 52 be de 9d 10 be
       -0.118620895 0.008829441 -0.20529447 -0.14122722
000170 b1 48 80 bd 11 d3 2c 3f 42 15 dc bd f1 6a 22 be
       -0.06263865 0.6750956 -0.10746242 -0.15861107
000180 41 c5 c2 be ea 62 54 be eb 09 ed 3e 45 ad 94 be
       -0.38041118 -0.20740858 0.4629663 -0.29038444
000190 8b c3 a1 bb 89 c6 88 3f 8c d8 87 be 1b 0d ba 3d
       -0.0049366406 1.0685588 -0.265324 0.09084531
0001a0 26 9c 22 3e 8a 02 66 bc 6a a2 d9 bc 3a 52 b6 3d
       0.15879878 -0.014038691 -0.026566703 0.08902402
0001b0 57 f0 24 3d 5d 50 1d be da 00 16 3f 5e 88 e9 be
       0.04026827 -0.15362687 0.5859505 -0.45611852
0001c0 99 7f 1b be 69 85 00 3e a0 00 ad be 43 1a 8f be
       -0.15185393 0.12550892 -0.3378954 -0.27949724
0001d0 5b 24 9b 3e 25 b7 34 3f 17 a8 1b 3f 9c 83 21 3f
       0.30301175 0.70591956 0.6080336 0.63091445
0001e0 c1 04 13 be 95 a5 a9 3d fd c0 a9 3d ed 81 5a bd
       -0.14357282 0.082835354 0.08288763 -0.053346563
0001f0 2f bd 9c 3f 50 e6 2a 3e 09 09 0c 3f bc d7 52 3e
       1.2245234 0.1668942 0.54701287 0.20590109
000200 c6 7d ff 3d c3 f0 8e bd fc 47 05 bd e3 ec 38 3e
       0.12475161 -0.069795154 -0.032539353 0.18059115
000210 60 8c 18 be db 41 2f 3e a6 55 d3 bd 8d 76 73 3e
       -0.14897299 0.17114966 -0.103190705 0.23775692
000220 5b 21 0b 3e 1e 18 4b 3e a2 f7 f9 3d 01 2e 05 3e
       0.13586943 0.19833419 0.12205435 0.1300583
000230 ed 4a 3b 3d 5b 3e 29 bd b7 fc 8f 3e a2 b8 f4 bd
       0.04572575 -0.041319232 0.28122494 -0.119492784
000240 9c 99 0e be 0f 62 8c 3d de 4d 02 3e ad 8d bd 3d
       -0.13925785 0.06854641 0.12725016 0.09255538
000250 0a 9d c1 bd 7a a9 89 3e c4 ee 00 be 24 c9 60 bd
       -0.09453781 0.26887113 -0.12591082 -0.054879323
000260 8e 59 de bc 36 0a f4 3d 94 27 58 bd 0b e4 82 bd
       -0.027142312 0.1191601 -0.05277212 -0.06391152
000270 4c 39 11 be b4 41 98 bd 51 28 4f be 33 43 83 be
       -0.14182013 -0.07434407 -0.20230223 -0.25637206
000280 d7 bc 22 be b6 05 d7 bd fb f2 a8 bc 60 3c ab 3d
       -0.15892349 -0.10499136 -0.020623675 0.08361125
000290 c8 0e d4 3d 95 d0 46 3e 6d fd aa bd 0b 6e 9f bd
       0.10354382 0.19415505 -0.083491184 -0.07784661
0002a0 06 67 cb 3d c2 e2 83 be b3 56 45 3e f5 30 e3 3d
       0.099317595 -0.2575894 0.19271354 0.11093322
0002b0 3b 39 c9 3d 0e 06 61 be f1 6a ec 3a 7a 5f 43 bd
       0.09825369 -0.21974966 0.0018037242 -0.047698475
0002c0 d3 d2 92 be ba 64 91 3e 63 a0 33 3e 01 f9 70 be
       -0.2867647 0.2839716 0.17541651 -0.23532487
0002d0 31 23 d8 3d 72 cf 9f bd e5 5a 85 3d 42 a5 d3 3d
       0.10553587 -0.07803239 0.065114774 0.10334255
0002e0 d1 2e 3f be da 92 71 3d a4 94 f7 3d c1 96 69 3d
       -0.18670203 0.05897794 0.12088898 0.057028536
0002f0 0f 33 8b bd 61 bc 89 3e 80 76 08 3e 5f 73 76 3e
       -0.06796848 0.26901534 0.13326454 0.24067448
000300 e2 2e bd 3e 12 49 4a bf b6 8a 7d be fb 72 7c bd
       0.3694983 -0.79017746 -0.24759945 -0.06163309
000310 09 05 12 be 10 7c d6 bd 78 9c 56 be 31 e9 24 3d
       -0.14259733 -0.10472882 -0.20958126 0.04026145
000320 c4 2e 97 bd 36 fe c2 bd 66 02 3d be e7 12 06 3f
       -0.07381967 -0.09521143 -0.18457946 0.5237259
000330 11 70 2b be 7d d1 5f be f7 09 57 be ec 01 81 3e
       -0.16741969 -0.21857257 -0.20999895 0.2519678
000340 2b c0 f3 3d f3 2b bd bd 65 4f 5f bd e9 ca 39 bd
       0.119018875 -0.09236898 -0.054519076 -0.045359526
000350 2a 48 16 bd 05 df e7 bd 2e 21 3d 3e 8a 3c 70 bd
       -0.036689915 -0.113218345 0.18469688 -0.058651485
000360 8b a9 71 bd b4 ef dd bd ed 45 11 3d b0 10 e2 be
       -0.05899958 -0.10836735 0.035467077 -0.44153357
000370 ab d6 36 3e 06 05 57 3e 01 e5 a8 bd 17 94 52 3e
       0.17855327 0.2099801 -0.08246804 0.20564304
000380 2a 38 a4 3d a0 fa fe 3d 2e 11 b4 3e e2 8d 92 bd
       0.08018525 0.12450147 0.35169357 -0.07155968
000390 7a 9c 96 bd 36 d2 94 3e c7 a2 9d 3d 7f 94 b3 bf
       -0.07354064 0.29066628 0.07697063 -1.4029692
0003a0 b6 4c be bd 79 70 57 3e f4 01 9c ba 8b 8a 68 bd
       -0.09291975 0.21038999 -0.0011902438 -0.05677275
0003b0 aa e0 57 3b 9b db d4 3c 0d 50 12 be 3d ce 88 3d
       0.0032940307 0.025983622 -0.1428835 0.06679962
0003c0 66 29 8a 3d 43 df a8 bc b0 db 9c 3e 27 1e 09 3e
       0.067461774 -0.020614272 0.30636358 0.13390408
0003d0 b5 c5 31 3e f3 aa 2c 3f 45 8d 5f bd 22 de c1 be
       0.17360575 0.6744835 -0.054578084 -0.37864786
0003e0 1e 4d 92 3d da 9c aa bc 27 64 ee bc 00 81 4f 3e
       0.07143615 -0.020826746 -0.02910049 0.20264053
0003f0 34 fc da 3f 6a 81 b5 3c 17 e9 10 be 50 52 a8 3a
       1.7108216 0.022156436 -0.14151417 0.0012841914

decoder.bias_ih_l0 f4 [192]
000000 1f 79 23 3e c8 be 83 bc ea 78 99 3c 9f eb 26 be
       0.15964173 -0.016082183 0.018734414 -0.1630082
000010 5a 4c 4f bc 83 dc 13 3e fb b9 b9 3c 44 f0 0c 3c
       -0.012652481 0.14439587 0.02267169 0.008602206
000020 1b af 1e 3e 44 71 3e bd 98 93 02 3e f6 81 e4 bc
       0.15496485 -0.046494737 0.12751615 -0.027894001
000030 25 9a 71 3d e8 13 7f 3a f3 c9 11 3e c5 7c e3 3c
       0.058984894 0.0009730444 0.14237194 0.027769456
000040 52 25 14 3e 41 c9 2b 3d 34 69 f6 bd e9 26 1f 3d
       0.14467362 0.041939978 -0.12031785 0.038855467
000050 18 50 18 3e ac b4 31 3e fb b8 0f bb 15 7e e8 3c
       0.14874303 0.17354077 -0.0021930325 0.028380433
000060 a0 cc 02 be fc 3e ec 3d c9 35 ba 3c bc 44 4d 3e
       -0.1277337 0.11535451 0.022730725 0.20045751
000070 21 6a d0 bd 49 4a b4 3d 73 e9 0d bd d3 b3 cf 3c
       -0.101764925 0.08803231 -0.034646463 0.025354302
000080 f3 c9 70 bc 25 ae 77 bd 08 3f ff 3d ec 1d 2c 3e
       -0.014696586 -0.06046881 0.12463194 0.1680829
000090 ed 89 2e 3c a3 f2 48 3d 64 1f 57 3e a9 1a b5 3c
       0.010653001 0.04905952 0.21008068 0.02210744
0000a0 2a 22 35 be 34 73 bb 3d 2c aa 76 3b 76 94 12 bd
       -0.17688814 0.091528326 0.0037638051 -0.035786115
0000b0 7b 6c 9b bd 90 20 16 3d 1c 7f 70 bc b6 8d 2f 3d
       -0.075890504 0.036652148 -0.014678743 0.042859755
0000c0 ce dd c1 3b 90 f7 70 3d a1 a5 50 3e 43 6c 01 3d
       0.0059163338 0.058829844 0.20375682 0.031597387
0000d0 52 71 f0 3d bc b9 79 3e cd 98 f4 3d dc 22 e3 be
       0.11740364 0.24387258 0.11943207 -0.44362533
0000e0 81 a1 f7 3d 8c 80 67 be 06 f3 c9 3d 2a a0 d4 be
       0.12091351 -0.2260763 0.09860806 -0.41528445
0000f0 cc ff 8f bd f3 8a f2 3d e4 96 8b bd 21 51 95 bd
       -0.07031211 0.11842909 -0.068158895 -0.07290865
000100 0f eb 2b bd a4 28 4a be f9 96 a2 be 83 d6 c4 bd
       -0.041972216 -0.19742066 -0.31755808 -0.09611227
000110 98 eb 20 be e4 99 18 be bd 92 00 3e c1 94 23 be
       -0.15714872 -0.14902455 0.12555976 -0.15974714
000120 12 02 8c be f8 f4 65 be 81 06 87 bd 8d 22 7c be
       -0.2734533 -0.2245673 -0.065930374 -0.24622555
000130 92 8c 88 bc 32 6f 6b 3d 12 82 b9 bd 29 54 cc ba
       -0.016668592 0.05747909 -0.09058012 -0.0015589047
000140 cf 9b 8b bd d1 f1 1f 3b 8a 73 d0 bc e1 b3 ee bc
       -0.068168275 0.0024405608 -0.025445718 -0.029138507
000150 e6 b6 c5 3b 01 97 1b bd ce 96 68 3e 41 6d 17 be
       0.006033766 -0.037985805 0.22713777 -0.14787771
000160 87 13 81 be 91 92 32 3c b0 3b 9d bd 07 25 74 be
       -0.2521021 0.010899202 -0.076774 -0.2384225
000170 f6 3e e6 bd 78 3f be bd a4 7c 0e be 41 dc 48 be
       -0.112424776 -0.092894495 -0.13914734 -0.1961527
000180 91 5e b0 bd 52 76 1a 3d da a1 18 be 31 6c 05 be
       -0.08611787 0.037710495 -0.14905491 -0.13029553
000190 c2 f6 04 be 04 9d 88 be c1 d3 95 be 1f f9 4e be
       -0.12984756 -0.26682293 -0.29263118 -0.2021222
0001a0 09 ea 41 be 54 f6 34 be 3b 6d b1 3d be 5f 31 3e
       -0.18936934 -0.17672092 0.08663412 0.17321679
0001b0 3c 64 88 be 60 df 30 bc bc 62 58 bd 40 98 aa bc
       -0.26638973 -0.010795444 -0.052828535 -0.020824552
0001c0 25 b8 35 be fb f6 22 3d 07 fc c5 3e 03 fc df 3a
       -0.17746027 0.03978632 0.38668844 0.0017088655
0001d0 b8 3a d7 bd 1f a7 39 be be 6c 8f be a9 09 c2 be
       -0.105092466 -0.18130158 -0.2801265 -0.37897995
0001e0 dd 93 8d bd 70 22 7b be d0 c5 43 bd b0 a9 b1 be
       -0.06912968 -0.24524856 -0.04779607 -0.34699774
0001f0 78 0a e0 3b 5a 2a b5 be 54 03 93 be ac 2f 51 3e
       0.0068371855 -0.35383874 -0.28713477 0.20428342
000200 a5 31 18 be 8b eb 5d bc 6b 0b e6 bc 87 63 7b 3e
       -0.14862688 -0.013544927 -0.028081616 0.24549685
000210 56 41 18 3e 81 34 75 3c 69 3d 32 be 5c 77 b4 3d
       0.14868674 0.014966131 -0.17406239 0.088118285
000220 26 b5 b8 bd 6d 37 12 3e 19 7a ad 3c 31 92 9c 3d
       -0.09018926 0.14278956 0.021176385 0.07645071
000230 27 a3 d4 3d 6c bb 0d 3e 57 c2 10 3d b2 23 46 be
       0.10382681 0.13841027 0.035341587 -0.19349554
000240 cc 02 20 be f3 e3 57 3e e1 e0 7b 3e e8 73 e2 3d
       -0.15626067 0.2108305 0.24597503 0.110572636
000250 78 22 1e be c2 c1 ec 3d f4 71 13 be 79 7c f8 bd
       -0.15442836 0.11560394 -0.14398938 -0.12133116
000260 19 f0 00 bc 80 32 da 3d 75 7c 24 3d b8 26 f2 3d
       -0.007869744 0.10654163 0.040157754 0.11823791
000270 9c de a8 be 36 8f 36 be 71 3b 96 bc 05 a9 60 bd
       -0.32982337 -0.17828068 -0.01833889 -0.05484869
000280 22 7e cb bd 5d 78 bb bc 33 3b 4c bd cb 8f 2b 3d
       -0.09936167 -0.022884542 -0.049861144 0.04188518
000290 fa 53 ae bc 74 ae 17 be 80 02 9a bd da 2a 55 3d
       -0.021280278 -0.14812642 -0.07520008 0.05204282
0002a0 be b0 27 bd 83 52 20 be 55 d5 31 3e b9 39 1a 3e
       -0.04094004 -0.15656476 0.17366536 0.15061082
0002b0 f9 a4 53 3d b5 19 72 3c 93 4e 22 3e 56 b0 0f bd
       0.051671002 0.014776637 0.15850286 -0.035080276
0002c0 bc 9d a6 bc 6b ea 0b 3e f7 43 8e 3b 9b 93 ee bd
       -0.020338885 0.13663642 0.004341598 -0.11649247
0002d0 3e b0 32 bd d5 3b 00 be 17 8e 89 be 87 4f b9 3d
       -0.04362511 -0.12522824 -0.26866218 0.09048372
0002e0 a8 e1 00 3c 0c 0d 69 be 19 99 08 3e cf ec 92 bc
       0.007866301 -0.22758883 0.13339652 -0.017935185
0002f0 44 d1 0d 3e 3a bc c7 bd 2e d0 45 bc fb 0a 38 3e
       0.1384936 -0.09752698 -0.01207356 0.17972939

decoder.bias_hh_l0 f4 [192]
000000 c5 8a 5f 3e 9c e2 dc bb ef 49 ec 3d de 67 52 3d
       0.2183028 -0.006740881 0.11537539 0.051368587
000010 67 c4 40 bd cf 2b 09 3d ba 32 87 3d 6a a3 ee 3d
       -0.047062304 0.033489045 0.06601472 0.116522625
000020 71 6b 9c 3e 84 55 21 3d 8b a6 f6 3c 36 d5 27 3e
       0.3055072 0.039388195 0.03010871 0.16389927
000030 47 3f ce bc f9 ed 0f 3e fa 2c cd 3c 84 d9 f1 3d
       -0.025176657 0.14055623 0.02504586 0.11809066
000040 29 9f d5 bc 08 b5 b8 bc 9b f8 14 3d 24 ec 70 3d
       -0.02607687 -0.02254726 0.0363699 0.05881895
000050 82 79 9f bc c0 f8 ef 3c a0 d4 c7 bd 4e 63 f7 3d
       -0.01946712 0.029293418 -0.09757352 0.12079488
000060 64 1f 36 bd 84 3e 9d bc 7d c3 8a bd 45 b9 88 3e
       -0.04446353 -0.019194849 -0.06775568 0.2670385
000070 9f e1 be 3c 73 27 0e 3e b5 2b d0 bd e1 be a0 3d
       0.023300944 0.13882236 -0.101645865 0.07848907
000080 68 45 34 3e c3 5b 96 3b e7 3e ee 3d e1 ad 80 3d
       0.17604601 0.0045885756 0.116330914 0.06283165
000090 e2 c1 04 bd ba 07 f1 3d 8f 84 c3 3d 77 01 49 bd
       -0.032411464 0.11769052 0.09546768 -0.049073663
0000a0 d2 2c c1 bd 9d 2a 35 bd 68 ba 13 3e 2c d4 1a 3d
       -0.09432377 -0.044230092 0.14426577 0.0378
0000b0 8b 1f b8 bd 69 d8 1c 3d 88 96 9b 3c 54 48 70 bd
       -0.08990391 0.038292322 0.018992677 -0.058662727
0000c0 f9 9f 42 3d ad 5a 08 bc d7 b1 a2 3d db b0 40 3e
       0.047515843 -0.0083224 0.079440765 0.18817465
0000d0 54 ec ca 3d 15 0a 12 3e a6 e4 85 3e a6 b8 b5 be
       0.09908357 0.14261658 0.26151007 -0.35492438
0000e0 e7 a9 01 3d 29 7c 06 be 8c 7c 1b bd 3c af 6f be
       0.031656172 -0.13133301 -0.037960574 -0.2340669
0000f0 58 4e b6 bc db cb 23 3e f4 53 d5 bd 6f 65 65 3c
       -0.022254154 0.15995733 -0.104164034 0.014001234
000100 ca 16 0e be e7 2e e8 bd f4 67 b5 bd 92 1c 04 be
       -0.13875881 -0.11337071 -0.08857718 -0.12901524
000110 76 16 0a be 96 a5 03 be 99 a9 bc bd 13 c7 ad bd
       -0.1348513 -0.12856135 -0.09212036 -0.08485236
000120 b3 8a 5b be 5e 9e 59 be 55 e1 15 3e f4 07 9d be
       -0.21439628 -0.21251819 0.14636739 -0.3067013
000130 5e 73 64 3a a8 dc 8a bc b7 a0 b8 bd 37 a5 0f be
       0.0008714701 -0.01695092 -0.09015029 -0.14027868
000140 bf 75 f0 bc e1 37 16 bd 75 b3 d0 3d c9 40 42 3e
       -0.02935302 -0.036674384 0.10190479 0.18970026
000150 26 4d 15 3e f5 86 8d bd 36 18 84 3c 8a e5 ac bd
       0.14580211 -0.06910507 0.016124826 -0.084422186
000160 12 22 58 be 85 e6 1d bd 0f f0 7d bd 48 91 d1 bd
       -0.21106747 -0.03854992 -0.061996516 -0.10232788
000170 92 13 ff 3b 41 8b c7 bc 17 ba 9f be be 91 69 be
       0.0077843154 -0.024358394 -0.31196663 -0.22809502
000180 db a4 18 bd ef 57 77 3e 42 e3 7b be b4 ee 27 be
       -0.037266593 0.24154638 -0.2459841 -0.16399652
000190 85 08 d4 bd 00 f5 05 be 50 83 73 be b4 4e 07 be
       -0.103531875 -0.13081741 -0.2378056 -0.13213617
0001a0 af 83 e2 bd d3 46 d0 bd 08 ea 8b 3e b4 64 0b 3e
       -0.11060273 -0.10169759 0.2732699 0.13612634
0001b0 bd 3a 6b be af 1e b8 bd 7b 4c 1e be f9 a2 da bb
       -0.22971626 -0.089902274 -0.15458862 -0.00667226
0001c0 c1 51 d6 bd 56 5b 47 bd e9 a0 b0 3e 14 04 d4 bd
       -0.10464812 -0.04867109 0.34497765 -0.1035234
0001d0 0e 5b 98 bd 4e bd 93 be 31 c0 1d be c1 88 d1 be
       -0.07439242 -0.28855366 -0.15405346 -0.40924647
0001e0 10 7c 5a be ba fb 31 be b1 36 09 bd ff b3 66 be
       -0.21336389 -0.17381182 -0.033499423 -0.225296
0001f0 5c 05 57 be 37 31 77 be 6d 81 81 be e6 5f 8a 3e
       -0.20998138 -0.24139868 -0.25294057 0.2702629
000200 82 8a 17 3c cf 3a 3a 3d 3b e5 68 3d d4 76 36 bc
       0.009249331 0.04546624 0.056859236 -0.011136729
000210 df 2f 0b 3d c7 de 81 bd 9a f9 93 bd 13 32 70 bd
       0.0339812 -0.063413195 -0.07225342 -0.058641504
000220 87 9d 56 bd 27 74 f8 3d af cc 93 bc 4c bb 49 be
       -0.052396324 0.12131529 -0.018041937 -0.19700354
000230 69 79 2c 3e 74 65 e3 3c 84 c1 20 3e 4a ef 82 ba
       0.1684319 0.027758338 0.1569882 -0.0009989527
000240 9a f0 99 3c a8 43 3a 3e d4 e4 28 3d 1e c9 d7 3d
       0.018791486 0.18189871 0.041233853 0.10536407
000250 9d 78 06 be 2c a9 0c 3e 93 e9 98 3b e3 3b e8 bc
       -0.13131948 0.13736409 0.004666516 -0.028348869
000260 02 cf b9 3d 2e c8 19 3d 00 6b 52 3a 07 a3 2f bd
       0.09072687 0.03754442 0.00080268085 -0.042880084
000270 0c 47 34 3d 3a 80 b7 3e e1 2e 01 3c 35 e2 1b be
       0.044013068 0.35840017 0.007884712 -0.1522301
000280 66 3c 62 be 0e 85 3d bd f1 7e ed be 02 73 18 be
       -0.22093353 -0.04626947 -0.4638591 -0.14887622
000290 78 23 e7 3d 7e a2 e0 bc 4b 15 19 3c 17 31 8a bc
       0.11286062 -0.027421232 0.009343456 -0.016869111
0002a0 f0 22 1e 3e f5 eb 21 be 88 63 38 3e 3b 68 4a 3e
       0.15443015 -0.15812667 0.18006718 0.19766323
0002b0 ca 1c 66 3f 1a 1a f5 bd 57 aa b3 bd 84 c7 7e bd
       0.8988768 -0.11967869 -0.08772724 -0.06220199
0002c0 5a e4 e5 3c c4 03 41 bd ae 76 fa bc 1c e5 ae be
       0.028062988 -0.04712273 -0.030574169 -0.34159172
0002d0 f3 c8 7d bd 86 c3 4d 3c 31 7f 14 be 83 4b 88 3f
       -0.06195922 0.012558823 -0.14501645 1.0648044
0002e0 dc 1a af bd b6 c1 ac 3f c1 b9 6d 3d fb cd 96 bf
       -0.08550045 1.3496616 0.058038477 -1.178161
0002f0 d9 02 2f bd 9f 39 ab 3e e1 33 f0 3e 9a 88 b7 3d
       -0.042727325 0.334424 0.4691458 0.089616016

token_head.weight f4 [4, 64]
000000 18 67 69 be 85 44 74 be 7b 0c 1e bf 22 9f 4f 3e
       -0.22793233 -0.23854263 -0.61737794 0.20275548
000010 55 bb c7 3d 3b 3b 1b 3f b7 a4 4c 3f e7 0a 58 3e
       0.097525276 0.60637254 0.79938835 0.21097909
000020 40 b8 23 3f 8a 66 4d 3e e2 3d 21 3e 28 d9 64 3f
       0.6395302 0.20058647 0.15746263 0.89393854
000030 98 97 44 3e cd 49 7f 3e 7e b1 3b 3e f0 ec 14 bb
       0.19198453 0.24930497 0.18329427 -0.0022724234
000040 21 e8 df bc 93 33 bd bd b3 b9 17 be 07 03 ea 3d
       -0.027332367 -0.092383526 -0.14816932 0.11426359
000050 c8 9e 30 be d3 b9 ca 3d 10 bd 49 be e7 5e 97 be
       -0.1724807 0.098987244 -0.19701028 -0.29564592
000060 aa 86 cc be 36 31 e6 3c f2 b1 ec be b3 63 41 3e
       -0.3994649 0.028099637 -0.46229511 0.18885688
000070 fb 78 b2 be 4b 57 22 be 0e 44 42 be e6 4a f0 bd
       -0.34857926 -0.15853612 -0.18971273 -0.11733036
000080 ba 23 68 bf 60 71 72 bb 48 21 c0 3d 0b f7 5a bf
       -0.90679514 -0.0036993846 0.09381348 -0.8553321
000090 65 89 97 3d 75 31 fa 3c 17 21 ed 3d ec bb c0 be
       0.07399253 0.030541161 0.11578577 -0.37643373
0000a0 b6 56 0f 3f cd bc c2 bd 45 3a 10 3e ec ea 0f 3e
       0.55991685 -0.09508667 0.14084728 0.1405446
0000b0 95 93 10 3f c8 c8 92 be 72 e3 70 3f 35 c3 5f bf
       0.5647519 -0.2866881 0.94097054 -0.8740724
0000c0 67 5f 75 be b0 03 2d 3d b0 cf 14 bf 0b 15 a9 3e
       -0.23962174 0.042239845 -0.58129406 0.33023867
0000d0 c2 de 48 3e e5 3d 1b 3c ec f4 0e 3f 0a 0a cf 3e
       0.19616225 0.009475206 0.5584247 0.40437347
0000e0 03 5f 58 bd 16 9f 0b bd 31 9c 74 3e d4 12 38 bf
       -0.052824985 -0.034087263 0.23887707 -0.7190373
0000f0 42 0f ef 3e 30 3f 77 3e e2 df 3f 3f 1a d7 f9 bc
       0.46691328 0.24145198 0.74950993 -0.030498076
000100 cd 68 80 bf c5 33 ab 3f ae 7c 30 3e 4a 9f 01 c0
       -1.0031983 1.3375174 0.17235062 -2.0253472
000110 4b 20 ab bf 98 98 bc be 0e c6 03 c0 1a 2e a4 bd
       -1.336923 -0.3683517 -2.0589633 -0.08016606
000120 0b 45 0a bf 1b 86 be bf a8 69 62 bd 7d 56 7f bf
       -0.540116 -1.4884676 -0.055276543 -0.99741346
000130 ea f9 7f be 6f 38 a6 be 81 c4 1a be 72 fa 86 3f
       -0.24997678 -0.3246493 -0.15114023 1.054518
000140 55 67 c8 3d a0 e1 7c 3e 25 38 36 3f e5 e2 19 be
       0.09785334 0.24695444 0.7117942 -0.1502796
000150 64 b1 36 3d 76 bf 46 be 76 f1 d6 3d 77 27 b9 bd
       0.044602767 -0.19408974 0.10495274 -0.090407304
000160 41 86 75 3e ea 3e 00 bd 05 8d 6f 3e 2e 2e ab 3f
       0.23976995 -0.03131 0.23393638 1.3373468
000170 5e 9b 04 bf 7c 82 6f bf 61 35 72 3c 87 bb cc bc
       -0.5179957 -0.9355848 0.014783234 -0.024991764
000180 44 29 80 3f 2c f4 d1 bd bf 20 fb be 68 74 d5 3e
       1.0012593 -0.1025165 -0.4904842 0.41690373
000190 ec bc b4 3d 36 bc 42 bd 1b 50 21 be ee 1b df 3e
       0.088250965 -0.047542773 -0.15753214 0.43575996
0001a0 25 84 22 bf 1d 6e ef bc c8 6c cc bd 94 36 d5 bd
       -0.63482887 -0.02922731 -0.09981686 -0.104108006
0001b0 fb 67 27 be 54 d3 ab 3d 2c 5c 3e 3f 8f 7a 17 3f
       -0.16348259 0.08389917 0.74359393 0.59171385
0001c0 a2 14 12 3d 53 d9 88 3b bf ff b3 3f be 25 eb 3e
       0.03566421 0.0041762977 1.4062423 0.45927233
0001d0 f3 8d 3a be fc 1b 56 be 2a dd b7 3d d5 06 28 bf
       -0.18218212 -0.20909113 0.089777306 -0.65635425
0001e0 b6 28 07 3d 69 de a3 3d e9 ec 7c 3c 45 e3 d0 3e
       0.03299781 0.08001406 0.015437343 0.40798393
0001f0 6c 50 d6 bf c4 38 11 3f 47 ef 08 bf db 72 49 3e
       -1.6743293 0.5672724 -0.5349011 0.1967272
000200 e3 29 1a 40 c6 ef 2a c0 03 08 95 3e 66 be fb 3f
       2.4088066 -2.6708846 0.29107675 1.966748
000210 c1 c2 47 bf ff cb d7 be 4e 1a 7c bf 2c 6b ce bc
       -0.78031546 -0.42147824 -0.9847764 -0.025197588
000220 fc 38 15 bf 4c 45 20 40 f9 57 7b be b4 60 69 bf
       -0.58290076 2.5042295 -0.24545278 -0.9116318
000230 7c 5a 90 be 42 1d 05 bf d5 1c e3 bd 31 ef 00 bf
       -0.28194034 -0.5199777 -0.11089484 -0.5036498
000240 3a 51 49 3e ea e4 83 3d 51 81 69 3e 29 30 9f be
       0.19659892 0.06440146 0.22803237 -0.3109143
000250 35 d2 75 3e 2f 23 db bd ff 45 bd 3d b1 86 95 3e
       0.24005969 -0.1070007 0.09241866 0.29204324
000260 69 9a dc 3d c7 da bc bd ea 87 38 3f 44 ae bb bf
       0.10771639 -0.09221416 0.7208239 -1.4662557
000270 92 b5 fa bd 6e 05 03 40 4c 1b 7f 3e 5d ca 43 3e
       -0.12241663 2.0472064 0.24912757 0.19120164
000280 ba 2f 5c 3d 9e 9e b2 3d d0 3f 56 3f b3 a4 2e 3f
       0.053756453 0.0872166 0.8369112 0.6822006
000290 20 18 85 be 8c 33 41 3d 28 8f eb 3d 72 77 3e 3e
       -0.25994968 0.0471683 0.11501914 0.18600252
0002a0 62 94 f3 3e e9 1d 6b 3d b4 e7 67 be f7 d5 0d be
       0.47574145 0.05740157 -0.22646981 -0.13851152
0002b0 6d fb b5 be 80 95 aa 3e 42 c8 b0 bf f3 62 17 3f
       -0.35543385 0.33317184 -1.3811114 0.5913536
0002c0 23 a2 77 3e f9 4a 41 be cd 55 f3 3e 2f 0a e9 be
       0.24182944 -0.18876256 0.47526398 -0.45515582
0002d0 a3 17 be 3f ba 0d 87 bf f6 da a4 bb a9 a0 f4 be
       1.4850963 -1.0551064 -0.005030985 -0.47778824
0002e0 16 2a 7b 3e 4b b0 5e be 49 24 7a be 98 c3 99 3e
       0.24527773 -0.21746938 -0.24427904 0.3003204
0002f0 2d 65 7e 3f 97 d7 8a be 43 f9 3e bf 82 a9 b1 be
       0.9937313 -0.27117607 -0.74599093 -0.34699637
000300 87 4f a1 be d0 9a b0 3f bd 50 6b bd bb b9 6f 3e
       -0.31505987 1.3797245 -0.057450045 0.23410694
000310 2a 68 89 3f b4 e6 3f 3e 7f 35 d5 3f 04 4a 3b be
       1.0734913 0.1874035 1.6656951 -0.18289953
000320 bc b7 30 bd 08 af 3c bf be 42 e0 3d 72 7c d2 3e
       -0.043143973 -0.73704576 0.1095023 0.4111057
000330 d8 a2 86 bc 24 cb 01 3f e1 96 ed 3d 73 85 ac be
       -0.016435072 0.50700593 0.116010435 -0.33695564
000340 19 e6 53 bc 3a 34 80 be d4 7b f0 be 2b e3 51 3e
       -0.0129332775 -0.25039846 -0.46969473 0.20496814
000350 82 32 8a 3d a0 a6 97 3d 19 0d bf bd 4e ad 38 3e
       0.06747915 0.07404828 -0.0932867 0.1803486
000360 9d 1f 90 3d 25 5d 11 3e b8 63 16 bd 97 06 ce be
       0.0703728 0.14195688 -0.036716193 -0.40239403
000370 45 3d 2c 3f 05 e0 29 bf e7 5e 7f bc a6 c0 9d 3c
       0.6728099 -0.6635745 -0.015586591 0.019256901
000380 30 43 98 3e 35 68 90 3e ae a3 20 be 49 8a 93 3e
       0.2973876 0.28204504 -0.15687439 0.2881644
000390 d9 08 0a 3d d8 73 92 3e 4d 81 d2 bd 40 cb ee bb
       0.033699844 0.28604007 -0.102785684 -0.007287413
0003a0 09 c0 31 bf 77 56 65 bb 15 87 b8 3d 21 a4 0d 3e
       -0.6943365 -0.0034994164 0.0901014 0.13832141
0003b0 af dc 92 be ad 7d d1 bd fe bf 3e bf f6 52 28 3d
       -0.28683993 -0.10229049 -0.74511707 0.041094743
0003c0 94 dc d4 bd 8f be ca 3c da 8d 88 bf 80 d4 82 bd
       -0.103936344 0.024749069 -1.066829 -0.063881874
0003d0 25 ac 37 bf 3f 67 69 3f 5a ac 14 bf d4 39 13 3f
       -0.71747047 0.91173166 -0.5807549 0.57510114
0003e0 81 78 0a bd 82 19 68 bd ea 1d c7 3d e9 f2 5e 3d
       -0.033806328 -0.05666495 0.097225025 0.054430876
0003f0 6d 98 d1 3e 7f b4 af be d4 ca 78 3e fa 94 fd 3c
       0.40936604 -0.34317395 0.24296123 0.030954827

token_head.bias f4 [4]
000000 fb d1 85 3e b9 fe 49 bd 13 7d 3a be 8b cf 1e be
       0.26136765 -0.049315188 -0.18211775 -0.15508859

dur_head.weight f4 [1, 64]
000000 5a bd 47 3e ad a5 07 c0 99 e1 93 3d 36 22 84 3f
       0.19505826 -2.119487 0.07220764 1.032294
000010 0f fa 7c be 00 26 71 3f 80 ca 8b bf d5 cd 68 3f
       -0.24704765 0.9419861 -1.0921173 0.90939075
000020 96 6a 9e 3f b6 c2 fa 3e bf 76 1c 3f 31 b1 6a bf
       1.2376277 0.48976678 0.6111869 -0.9167662
000030 78 84 08 3f cc d1 47 bf bd e9 ff 3e 2a be a9 bf
       0.5332713 -0.780545 0.49983016 -1.3261158
000040 e3 b8 df be 53 36 45 3f 8c e4 7a bf 16 71 10 3f
       -0.43695745 0.7703602 -0.98004985 0.56422555
000050 40 0b 0d bf 85 64 2e 3f ab e5 0d bf a8 3f 07 bf
       -0.5509529 0.6812213 -0.5542857 -0.52831507
000060 d6 51 78 bf 93 a4 04 3f 86 89 5c bf 03 80 80 be
       -0.9699987 0.5181362 -0.86147344 -0.25097665
000070 bc c2 51 bf a8 ef 15 40 3d 3a 84 3f 54 29 ee be
       -0.81937766 2.3427525 1.0330273 -0.46515906
000080 9d c7 5d bf f8 7f fd be 93 6b 2c 3f 07 80 0a c0
       -0.8663271 -0.49511695 0.67351645 -2.1640642
000090 87 6b 04 3f 68 b4 a7 bc ca bd f1 3d ec 23 c4 bd
       0.51726574 -0.020471767 0.118037775 -0.09577164
0000a0 32 9c aa 3f d1 64 f0 be 31 5b 4b 3f 3b f0 19 3f
       1.3328917 -0.46951917 0.7943602 0.6013219
0000b0 5b 1e d8 3f 00 2a f0 be 64 5b d9 bd 2b f0 a0 bf
       1.6884264 -0.46907043 -0.106131345 -1.2573293
0000c0 ea 14 01 bf 67 28 db 3e 0f 1d 3b 3f 8d 2a 30 bf
       -0.5042254 0.42804262 0.73091215 -0.6881493
0000d0 35 04 03 3e e7 f6 da bf 06 4a b0 3f 24 85 99 3f
       0.12794574 -1.7106599 1.377259 1.1993756
0000e0 2d 68 00 bf a9 90 6f 3f f2 ad 03 3f 8d 24 b6 bf
       -0.5015896 0.9358011 0.51437294 -1.4229904
0000f0 5b 4f 91 3f 58 f1 13 3f ca c2 92 3f 0f dc 80 3f
       1.1352342 0.57790136 1.1465695 1.0067157

delta_head.weight f4 [1, 64]
000000 1a 86 f1 3f bd 8b 9d c0 73 8d 05 be 52 85 05 40
       1.886905 -4.923308 -0.1304224 2.0862622
000010 59 c1 b4 3e 31 0c 6e bf de af 22 bf 44 50 88 be
       0.35303763 -0.9298735 -0.635496 -0.26623738
000020 ee ee 5a bf 05 f2 03 40 4e 7f 0c bf 71 a1 aa bf
       -0.8552083 2.0616467 -0.5488175 -1.3330518
000030 ff 78 a7 be 78 d0 83 bf 81 b1 0d bf b7 7a c4 bf
       -0.327095 -1.0297995 -0.55348974 -1.534995
000040 b5 b5 dd 3e 19 0f 2c be 51 d6 ae bc 7b b1 b9 be
       0.43302694 -0.16802634 -0.021342428 -0.3626822
000050 54 47 e0 3e ee fc bc be 70 62 12 3f c0 13 b7 3e
       0.4380442 -0.3691172 0.57181454 0.35757256
000060 24 de 2f 3c b7 f4 e5 be 74 78 9a 3f 31 cd 05 c0
       0.010734115 -0.44913265 1.2068009 -2.090649
000070 51 38 9b 3e 84 74 ca 3f 6d e5 b5 3e 89 36 ca 3e
       0.30316404 1.5816808 0.355266 0.39494732
000080 bb 27 aa 3f ba 32 c1 3e 53 b7 d6 3f 9b 5e bd 3e
       1.3293375 0.37734014 1.6774696 0.3698624
000090 be ad 0b bf c0 15 9d bc 09 67 de bc 8c 4e 32 3f
       -0.54561985 -0.01917541 -0.02714874 0.69651103
0000a0 72 85 5b 3f 3a 08 c3 3e 5f 66 cd be 9e df a5 be
       0.85750496 0.38092214 -0.40117165 -0.3239717
0000b0 91 ec 98 be 5d 54 0f 3f e6 b6 dc bf 89 57 f0 3e
       -0.29867986 0.55988103 -1.7243316 0.46941784
0000c0 f9 63 bb 3e f7 21 b1 be 94 72 1e 3f 21 c4 95 bf
       0.3659971 -0.34596226 0.6189358 -1.1700479
0000d0 7a 82 b2 3f a3 34 0f c0 b3 b8 ff 3e 98 d3 5a bf
       1.3946068 -2.2375877 0.49945602 -0.85479116
0000e0 30 2e b6 3e 27 8a d8 be 38 36 bf be 6e d8 49 3f
       0.35582113 -0.42292902 -0.37346053 0.7884587
0000f0 1a c5 d6 3f 45 cc 1b bf ed 4d 62 bf 0c fd ae be
       1.6778901 -0.60858566 -0.88400155 -0.34177434

exp_avg f4 [64, 1]
000000 fd 05 81 bc 00 00 00 00 eb df 91 be 00 00 00 00
       -0.015749926 0.0 -0.28491148 0.0
000010 00 00 00 00 60 15 bc bc 00 00 00 00 00 00 00 00
       0.0 -0.022959411 0.0 0.0
000020 0c 8f 70 be 87 bd 0e 3d 00 00 00 00 00 00 00 00
       -0.23492068 0.034848716 0.0 0.0
000030 dd 42 7f 3d 86 72 58 bf c5 9b 51 be 9d 99 e3 be
       0.062319625 -0.8454975 -0.20469578 -0.44453135
000040 f8 d6 0e 3f 97 1a 06 be 00 00 00 00 62 ac 11 3e
       0.55796766 -0.1309608 0.0 0.14225915
000050 f1 22 c3 3d 50 b7 cb bd 00 00 00 00 00 00 00 00
       0.09528149 -0.099470735 0.0 0.0
000060 00 00 00 00 0e 55 20 be 00 00 00 00 2c 0f a4 be
       0.0 -0.15657446 0.0 -0.32042825
000070 00 00 00 00 b3 98 80 bd e6 a3 13 be d5 10 aa 3d
       0.0 -0.06279125 -0.14417991 0.08303992
000080 2e d8 19 3b 35 89 d1 3c 7f 59 10 bd bf 9a 1c bd
       0.00234748 0.02557812 -0.0352416 -0.038233515
000090 b5 cd f0 bd 00 00 00 00 dc 58 a6 3d 00 00 00 00
       -0.117579855 0.0 0.08122417 0.0
0000a0 00 00 00 00 04 00 00 00 00 00 00 00 da 0c 0e 3f
       0.0 6e-45 0.0 0.5548836
0000b0 d5 48 c9 bd 00 00 00 00 68 e9 39 3e c4 1e 06 be
       -0.09828345 0.0 0.18155444 -0.13097674
0000c0 8a 0a e7 bd b5 eb b5 3d 00 00 00 00 00 00 00 00
       -0.11281307 0.08882848 0.0 0.0
0000d0 8b 94 0b be ac e8 bd be dd 91 e0 bd 00 00 00 00
       -0.13630883 -0.37091577 -0.10965321 0.0
0000e0 00 00 00 00 88 cd 0c 3e 00 00 00 00 39 b5 a1 be
       0.0 0.13750279 0.0 -0.31583574
0000f0 3c f0 26 3c 0f a2 fe 3d 56 19 a8 be 25 ce 1e 3d
       0.010189112 0.12433254 -0.3283183 0.038770813

exp_avg_sq f4 [64, 1]
000000 b4 d8 5f 3e 00 00 00 00 93 7f a0 41 00 00 00 00
       0.2186001 0.0 20.062292 0.0
000010 00 00 00 00 a3 91 8a 3f 00 00 00 00 00 00 00 00
       0.0 1.0825695 0.0 0.0
000020 d9 8c 32 41 76 be 53 3f 00 00 00 00 00 00 00 00
       11.159387 0.82712495 0.0 0.0
000030 0e 61 6e 3f 5d 5d fb 42 49 b9 14 41 22 71 26 42
       0.93116844 125.68235 9.295236 41.61048
000040 1a 21 7f 42 2e c2 4a 40 00 00 00 00 7f f2 b1 40
       63.782326 3.1681018 0.0 5.5608516
000050 4a 1f 24 40 69 5d 65 40 00 00 00 00 00 00 00 00
       2.5644097 3.5838263 0.0 0.0
000060 00 00 00 00 de 3d b3 40 00 00 00 00 28 c9 a3 41
       0.0 5.601302 0.0 20.47322
000070 00 00 00 00 3b 05 01 3f a0 77 a9 40 25 83 c1 3f
       0.0 0.50398606 5.2958527 1.5118147
000080 fc 21 f2 3d a8 37 b3 3e 99 65 e7 3d 15 43 01 40
       0.11822888 0.350034 0.11298675 2.0197194
000090 a7 ab 93 40 00 00 00 00 04 22 ec 3f 00 00 00 00
       4.6147037 0.0 1.8447881 0.0
0000a0 00 00 00 00 a7 7d 6b 1e 00 00 00 00 10 5c 73 42
       0.0 1.2466781e-20 0.0 60.839905
0000b0 67 b4 c8 3f 00 00 00 00 d7 b5 1f 41 d5 0c 8e 40
       1.5680054 0.0 9.9818945 4.4390664
0000c0 6e 49 0b 40 c8 07 48 40 00 00 00 00 00 00 00 00
       2.1763568 3.125475 0.0 0.0
0000d0 ed cf 90 40 f7 1a c3 41 63 d4 3b 40 00 00 00 00
       4.5253816 24.388166 2.934838 0.0
0000e0 00 00 00 00 5d 9e 84 40 00 00 00 00 e4 a7 a6 41
       0.0 4.1443315 0.0 20.831978
0000f0 f1 f3 41 3f 2a cf 3e 41 7f bf c9 41 a3 b6 f9 3f
       0.7576285 11.925577 25.218504 1.9508861

exp_avg f4 [64]
000000 ea a0 f4 bc 00 00 00 00 74 d4 ae be 00 00 00 00
       -0.029861886 0.0 -0.34146464 0.0
000010 00 00 00 00 4b 6d b8 bc 00 00 00 00 00 00 00 00
       0.0 -0.022513052 0.0 0.0
000020 47 5b 9a be e7 8a e3 3c 00 00 00 00 00 00 00 00
       -0.30147764 0.027776195 0.0 0.0
000030 50 bf 8a 3d fb 0d 70 bf 3e c2 7f be d1 51 0d bf
       0.06774771 -0.9377133 -0.24976441 -0.55202967
000040 25 b5 28 3f 83 0e 36 be 00 00 00 00 69 31 13 3e
       0.65901405 -0.17778973 0.0 0.14374317
000050 79 ef e9 3d 04 c7 fc bd 00 00 00 00 00 00 00 00
       0.11422629 -0.12342647 0.0 0.0
000060 00 00 00 00 ef f0 50 be 00 00 00 00 91 73 cc be
       0.0 -0.20404409 0.0 -0.3993192
000070 00 00 00 00 b1 77 ae bd bb 91 42 be a4 8e cd 3d
       0.0 -0.08518923 -0.19000904 0.10036972
000080 a4 dd 85 bc 43 d1 81 3c 09 01 5e bd 86 b4 25 bd
       -0.016341038 0.015846854 -0.054200206 -0.040455364
000090 7c c0 e7 bd 00 00 00 00 ef 47 89 3d 00 00 00 00
       -0.1131601 0.0 0.06703173 0.0
0000a0 00 00 00 00 04 00 00 00 00 00 00 00 65 76 25 3f
       0.0 6e-45 0.0 0.6463378
0000b0 5a b3 0f be 00 00 00 00 e3 e8 55 3e 3d 9d 26 be
       -0.14033261 0.0 0.2088962 -0.16270919
0000c0 1b 5e 14 be 50 27 b2 3d 00 00 00 00 00 00 00 00
       -0.14489023 0.086989045 0.0 0.0
0000d0 b9 0c 22 be f6 5b f1 be 24 c4 0f be 00 00 00 00
       -0.15825166 -0.47140473 -0.14039665 0.0
0000e0 00 00 00 00 af c6 0d 3e 00 00 00 00 75 7d bf be
       0.0 0.13845323 0.0 -0.37400404
0000f0 a4 07 d2 bb da c6 ee 3d d8 cc c4 be a4 10 3c 3c
       -0.0064096022 0.11659022 -0.38437533 0.011478577

exp_avg_sq f4 [64]
000000 3a bc dd 3e 00 00 00 00 af c5 78 42 00 00 00 00
       0.43307668 0.0 62.19305 0.0
000010 00 00 00 00 9f 37 8d 40 00 00 00 00 00 00 00 00
       0.0 4.4130397 0.0 0.0
000020 66 ca 01 42 1a 5d fe 3f 00 00 00 00 00 00 00 00
       32.447655 1.9872162 0.0 0.0
000030 fd 90 18 40 e5 35 8c 43 45 8f d6 41 31 a3 fb 42
       2.3838494 280.42105 26.819956 125.81873
000040 5f 6e 38 43 be 12 11 41 00 00 00 00 83 c8 83 41
       184.43114 9.067076 0.0 16.472906
000050 02 14 ee 40 e2 b9 38 41 00 00 00 00 00 00 00 00
       7.4399424 11.545382 0.0 0.0
000060 00 00 00 00 1b 3e 86 41 00 00 00 00 38 1d 74 42
       0.0 16.780325 0.0 61.028534
000070 00 00 00 00 95 45 bb 3f dc cb 82 41 6d 79 84 40
       0.0 1.463061 16.34954 4.1398225
000080 7d 27 d2 3e 48 f5 1a 3f a5 6b 6b 3e cd a4 ff 40
       0.41045752 0.6053052 0.22990282 7.9888673
000090 06 ae 63 41 00 00 00 00 8f 98 9d 40 00 00 00 00
       14.229986 0.0 4.924873 0.0
0000a0 00 00 00 00 a4 01 4d 24 00 00 00 00 da 03 1f 43
       0.0 4.445368e-17 0.0 159.01505
0000b0 51 36 87 40 00 00 00 00 85 f6 fe 41 a6 e4 53 41
       4.2253804 0.0 31.87037 13.243322
0000c0 e8 53 b9 40 4e 00 14 41 00 00 00 00 00 00 00 00
       5.7914925 9.250074 0.0 0.0
0000d0 51 6f 59 41 f2 45 8d 42 d2 0b 1b 41 00 00 00 00
       13.589677 70.63661 9.690386 0.0
0000e0 00 00 00 00 5a f5 2a 41 00 00 00 00 73 fd 6f 42
       0.0 10.6849 0.0 59.99751
0000f0 54 3b 23 40 84 c4 33 42 a0 c5 9a 42 4f 91 c6 40
       2.550496 44.94191 77.38599 6.205238
