server/models/pomodoro_model.pth (torch, 25717 bytes, 10 tensors)

shared.0.weight f4 [64, 1]
000000 5a cd 65 bf 7c dc cc 3e 68 07 4e bf b2 b5 16 bf
       -0.89766467 0.40011966 -0.8048005 -0.58870995
000010 40 47 3e bd 43 76 47 bc df 14 21 3e ba cf 39 bf
       -0.046454668 -0.012174192 0.15730618 -0.7258259
000020 af bf 3a 3e 34 02 16 bf 4c bf b7 be 68 14 79 be
       0.18237184 -0.5859711 -0.35888135 -0.2432419
000030 7e 2e 56 bf 76 09 74 bf 34 ae 55 3f 47 e9 a5 3e
       -0.8366469 -0.95326936 0.8346894 0.3240454
000040 e8 00 54 bf 30 77 bb bd 0e 11 50 bf e0 8c 30 be
       -0.8281388 -0.091535926 -0.81276023 -0.1724124
000050 ec ca f4 be 3d 7c e8 3e 14 fc 17 bf e8 b6 4e bf
       -0.47811067 0.45407286 -0.59369016 -0.8074784
000060 24 87 06 bf 9c 85 11 3f 0c db a9 be 78 85 70 bf
       -0.5254996 0.56844497 -0.33174932 -0.9395366
000070 30 3c a4 be 4f 71 04 bb fd 2f 01 3f 2e 55 0d bf
       -0.3207717 -0.0020209139 0.5046385 -0.552081
000080 00 87 46 bd 9c 59 31 3f 8c af 2c 3e 78 1e 4f bf
       -0.04846859 0.6927736 0.16863841 -0.80905867
000090 e9 25 1c 3f 21 b1 09 3d 9a 49 44 bf aa c6 2b bf
       0.60995346 0.03361619 -0.7667481 -0.6710001
0000a0 77 97 2b 3f f8 42 43 3f f1 d1 b1 3d 7c e3 5b bf
       0.6702799 0.7627406 0.08682621 -0.8589399
0000b0 2d be 7a 3e ff 43 42 3f 2a c7 e2 bb 3d 65 8f 3e
       0.24486609 0.75885004 -0.006920715 0.28006926
0000c0 e0 9d 2c be 4f dd 66 3d 48 48 16 3f c8 6a 79 be
       -0.168571 0.0563634 0.5870404 -0.2435714
0000d0 6f 67 30 3f cc 7b f9 be b1 8f 87 3d d8 42 c5 be
       0.6890783 -0.48727262 0.06619204 -0.3852756
0000e0 40 08 e6 be dd 90 77 3e 1a e1 04 3f cd cc 58 3f
       -0.4492817 0.24176355 0.5190598 0.846875
0000f0 b2 ba 44 bc 5c 36 c6 be ee e7 6c bf d8 77 9d be
       -0.012007402 -0.38713348 -0.92541397 -0.30755496

shared.0.bias f4 [64]
000000 68 38 54 bf 8f 47 f4 3e 54 e8 a9 be 4c e1 04 bf
       -0.8289857 0.47710845 -0.33185065 -0.51906276
000010 c0 e5 9c 3c ec 98 70 40 72 3a 3e 3f a0 a9 46 3e
       0.019152522 3.7593336 0.7430793 0.19400644
000020 c6 fe 3b 40 6c ab ea 3e 18 ad 4f bf d0 3b d2 3e
       2.9374251 0.4583391 -0.81123495 0.41061258
000030 d8 2b 8e be 7c 1e 10 bf b5 c3 ea bf 92 9c 12 c0
       -0.27767825 -0.56296515 -1.8340975 -2.2908063
000040 1a 9f 65 bf 64 a0 50 3f 54 7d 02 bf bc 44 6c bf
       -0.89695895 0.81494737 -0.50972486 -0.9229238
000050 ae fb 7e 3f bd 18 4d c0 48 ff 1c 3e 16 7d 6c 3f
       0.9960278 -3.204635 0.15331757 0.92378366
000060 68 0a 6b be 7f a9 04 c0 7c 47 35 bf 00 50 fb bb
       -0.22953188 -2.0728452 -0.708122 -0.007669449
000070 b8 2c 26 3e 58 4b 4d 40 9e 57 3a c0 84 53 60 bf
       0.16227996 3.2077236 -2.9115977 -0.87627435
000080 6a ae 6b 3f b1 70 ef 3f d3 52 d3 bf 60 d4 ca 3e
       0.9206301 1.8706266 -1.6509651 0.39615154
000090 20 27 5c bf 23 7b 71 40 0c 6c 61 3f 2a 96 1d 3f
       -0.859972 3.7731407 0.8805549 0.6155726
0000a0 75 64 3d 3f f2 3f e9 3f 47 19 47 40 4e 7d 0c bf
       0.7398141 1.822264 3.1109178 -0.548787
0000b0 0e 11 b6 bf 2d ca 2e 40 49 37 02 be f6 ab 1d c0
       -1.4223955 2.7310898 -0.12716402 -2.4636207
0000c0 10 37 8c 3d fa 4d 5d 40 29 58 52 c0 30 a4 42 be
       0.0684644 3.4578843 -3.2866309 -0.19007945
0000d0 c0 2b cd 3f 40 bf 95 3c ca 2a c0 3f 66 c6 45 bf
       1.6028976 0.018279672 1.5013058 -0.77255857
0000e0 c2 5b 7d 3f 52 d6 14 c0 81 67 32 40 e1 be b4 bf
       0.98968136 -2.325581 2.7875674 -1.4120752
0000f0 3b 24 6e 40 e2 08 3f 3f 42 c2 78 bf 78 f2 e8 3e
       3.7209613 0.7462293 -0.97171414 0.4549749

shared.2.weight f4 [64, 64]
000000 50 90 13 3d f2 66 96 bd d8 a4 b2 bd e0 e1 c6 3c
       0.0360263 -0.07343854 -0.08722848 0.024277627
000010 0c 9c 49 3d fc 65 e0 bd 52 f0 88 bd 9c 08 e4 bd
       0.049221084 -0.10956952 -0.066864625 -0.111344546
000020 a0 37 90 3b 78 8d b0 3c f0 a9 82 bc 10 fa 2c 3c
       0.0044011623 0.021551833 -0.015950173 0.010557666
000030 48 04 36 bd a4 40 1f bd 4c 36 06 bd 78 85 47 bd
       -0.044437677 -0.038880005 -0.032766625 -0.04871127
000040 8a 75 f7 bd 48 44 05 3d 96 2a e8 bd 08 7f 96 3d
       -0.12082966 0.03253582 -0.113362476 0.07348448
000050 48 48 26 bd c4 3e 2a 3d 5a 93 fe bd d8 63 95 3c
       -0.040596277 0.041563764 -0.12430449 0.018236086
000060 48 9f 33 bd 3c f3 ca bd 98 b9 3c bd 9c af 3e bd
       -0.043853074 -0.099096745 -0.046075433 -0.046554193
000070 1a e8 ce 3d 10 a3 c5 3d b6 5e c9 bd ba 62 9f bd
       0.101028636 0.09650242 -0.09832518 -0.077825025
000080 6a 7d 87 3d 1c eb b8 bd 00 0a d2 bd 70 29 77 3c
       0.06615718 -0.090292186 -0.102558136 0.015085563
000090 50 61 cd 3d 30 a4 94 3d 68 43 97 3c ce bb 93 3d
       0.100283265 0.07257879 0.018464759 0.07213555
0000a0 40 74 09 3c 34 dc 94 3d 8a 96 d5 3d 60 d6 69 bd
       0.008389533 0.07268563 0.10429104 -0.05708921
0000b0 80 54 5f bc 50 4e 36 bc 80 b4 a8 bb 14 30 03 bd
       -0.013630986 -0.01112707 -0.0051484704 -0.032028273
0000c0 c8 da ac bc 30 63 f4 bd fa 53 d1 bd 04 a1 a1 3d
       -0.021100417 -0.11932981 -0.102210954 0.078920394
0000d0 6a 36 db 3d e8 27 ec bd 28 88 1b 3d dc ad 71 bd
       0.10703738 -0.11531049 0.037971646 -0.059003696
0000e0 00 39 08 bd 18 33 06 bd 2a 9f 9b 3d de 16 ba bd
       -0.033257484 -0.03276357 0.075987175 -0.09086393
0000f0 00 75 03 bc c0 05 89 bd e8 c4 bf bd 00 c5 00 3c
       -0.0080235 -0.0669055 -0.09363729 0.007859468
000100 94 96 b2 3d 98 b7 b8 bc 5c 3a 6a 3d 68 7b bb bc
       0.08720127 -0.022548482 0.057184562 -0.022885993
000110 60 33 f3 3b c8 04 e6 bd a0 cf d7 bb d8 b4 bf bd
       0.007421896 -0.11231381 -0.00658603 -0.09360665
000120 84 05 65 bd 48 02 c7 3d f4 da 34 3d 56 d0 af bd
       -0.055913463 0.09717232 0.044154122 -0.08584659
000130 70 b0 af bc a0 0f ba bc bc b7 80 3d 7c 5e 84 3d
       -0.021446437 -0.022712529 0.062850446 0.06463334
000140 88 08 44 bd 80 db c1 bd 56 04 ee bd b0 8e cc 3d
       -0.0478597 -0.094656944 -0.11621921 0.09988153
000150 b0 c9 8e bc d4 3c 42 bd d0 fa 91 bc 10 1b 21 3c
       -0.017430156 -0.04742129 -0.017819792 0.009833112
000160 70 cb 63 3c 74 3e ac bd ce 80 d3 bd 7c 50 42 3d
       0.013903484 -0.084103495 -0.10327302 0.047440037
000170 fc 12 26 bd b6 4b d3 3d b8 b7 1d 3d 16 67 c8 bd
       -0.04054545 0.10317175 0.038505286 -0.09785287
000180 20 d7 73 bc 9c 02 97 3d 18 a7 cb bd 60 d7 de 3b
       -0.014882833 0.073735446 -0.0994398 0.006800577
000190 ac 0a 68 bd a4 ed c7 3d c8 04 d9 3c f8 02 fa bc
       -0.056650802 0.09762123 0.026491538 -0.030518994
0001a0 86 65 f0 bd 00 19 b3 3c 48 cb 86 3d 28 d5 9e bc
       -0.11738114 0.021862507 0.065817416 -0.01938875
0001b0 34 dc 2c bd 80 48 69 3b a6 19 b0 3d d0 c7 54 3d
       -0.04220219 0.0035596192 0.08598642 0.05194837
0001c0 f8 a1 b7 3c 3a 43 8a 3d e0 07 a3 bc dc b4 bd bd
       0.0224161 0.06751104 -0.019901216 -0.09263012
0001d0 d0 09 07 3c 7c d0 46 3d 0c df 67 bd 8e 4d a6 bd
       0.008242086 0.04853867 -0.0566092 -0.08120261
0001e0 14 50 a4 3d d8 1a 9b 3d e0 8a 1f bd 74 f6 ae bd
       0.08023086 0.075734794 -0.0389508 -0.08543101
0001f0 78 61 7f 3d 10 24 83 3d 90 f4 c1 3c 68 2f 72 bd
       0.062348813 0.06403363 0.023676187 -0.05912724
000200 9a 30 a8 3d 00 85 f3 ba 00 b6 e6 3d c0 1c 8d 3c
       0.08212395 -0.0018579066 0.112651825 0.017225623
000210 18 25 56 3d 7c bb c5 3d 88 c6 fa bd 76 ad cc bd
       0.05228147 0.096549004 -0.12244898 -0.099940225
000220 c4 14 7c 3d 18 0f 12 3d 18 46 25 bd b4 75 a1 3d
       0.06154324 0.035658926 -0.04035005 0.07883778
000230 50 f1 87 3d a6 4e 9c 3d 74 27 13 bd f6 a1 c8 bd
       0.066378236 0.076321885 -0.035926297 -0.097965166
000240 3c 25 ae 3d 34 ed eb 3d 08 92 92 3d e0 c6 d6 bb
       0.08503196 0.11519852 0.071567595 -0.0065544695
000250 00 54 e4 3d 36 77 ad 3d 2c 29 31 bd 90 9a 6c bd
       0.11148834 0.08470003 -0.043252155 -0.05776459
000260 3c 55 12 3d 14 64 cb bd 80 d2 67 3b 78 d5 90 3c
       0.035725817 -0.09931198 0.003537327 0.017679915
000270 24 79 f2 3d d0 bd a0 3c a8 6c 4f bd 24 56 89 3d
       0.11839512 0.01962176 -0.050640732 0.06705883
000280 e6 99 de bd 4c 23 1f 3d 84 9e 46 3d e0 95 b9 3b
       -0.108691975 0.03885202 0.048491016 0.0056636184
000290 04 15 ff bd 24 d5 07 bd de 27 e6 bd 10 f4 7c bc
       -0.1245518 -0.03316225 -0.11238073 -0.015439048
0002a0 ba 0c e0 bd 64 b7 bd 3d c0 e0 4a 3c 40 2c f4 3d
       -0.109399274 0.092634946 0.012382686 0.119225025
0002b0 92 4f f8 bd f0 c4 dc bc 50 3c ef bd d6 a3 9f 3d
       -0.12124552 -0.026949376 -0.116814256 0.07794921
0002c0 7a ac db bd 8e a5 b6 bd c0 64 17 bc e0 7d 17 bd
       -0.10726257 -0.08918296 -0.009240329 -0.036985278
0002d0 12 5f fe bd 26 e5 93 bd 54 d1 d0 bd 16 f9 dd 3d
       -0.12420477 -0.07221441 -0.10196176 0.10838525
0002e0 a6 6e eb bd f0 66 b7 bc 56 97 91 bd 88 0d e2 bc
       -0.11495714 -0.022387952 -0.07108943 -0.027594343
0002f0 80 97 a2 3d a2 63 a4 3d 68 31 22 bd ac 70 28 bd
       0.079390526 0.08026816 -0.0395979 -0.041123077
000300 ee e2 cc bd 00 35 d0 3b 88 84 50 3d 20 9c 19 3d
       -0.10004221 0.0063539743 0.05090764 0.037502408
000310 d8 2e cd bc ae 44 f6 3d c0 20 e3 bc b0 14 18 3d
       -0.02504675 0.12024818 -0.027725577 0.037129104
000320 40 31 0f 3d 72 44 f2 3d 7e 0b 95 3d 6e 2d 87 3d
       0.034959078 0.11829461 0.072775826 0.06600462
000330 6a 3d dc bd 00 bf 58 bd d0 70 98 bd e0 a8 91 3c
       -0.10753901 -0.052916527 -0.07443392 0.017780721
000340 30 ef 03 3c 4c 78 38 bd 02 98 dd 3d 36 03 88 3d
       0.008052632 -0.0450366 0.10820009 0.066412374
000350 6c d9 fd 3d 40 fd a1 bc b2 78 e9 bd 88 45 cf bd
       0.123949856 -0.01977408 -0.11399974 -0.10120684
000360 00 6a 63 3b a4 2a 04 bd 1e 19 a5 bd f4 4d d7 3d
       0.0034700632 -0.032267228 -0.08061431 0.10512915
000370 ec 49 d8 3d e0 dd 42 3c 0c ca c8 3d f8 67 d6 bd
       0.105609745 0.011893719 0.098041624 -0.10469049
000380 e8 6b 91 bc 5c 8e 70 bd 46 a1 d8 bd 60 f9 d5 bd
       -0.017751649 -0.058729514 -0.105776355 -0.10447955
000390 bc a4 3f bd ee 47 9b bd ac c5 36 3d 60 1d 68 3d
       -0.046787962 -0.07582079 0.04462211 0.05666864
0003a0 20 48 4d bd 00 50 af b8 b0 c7 a5 3d ca d2 d3 3d
       -0.050117612 -8.3595514e-05 0.08094728 0.10342939
0003b0 58 ac e5 bc a8 40 45 bd 80 bd bd 3b 94 a7 4a bd
       -0.028036281 -0.048157364 0.0057904124 -0.04947622
0003c0 80 fb b6 bd a8 85 79 bd 9c 26 8b bd 3e 27 ee bd
       -0.089346886 -0.06091848 -0.067944735 -0.116285786
0003d0 14 3d 6a 3d c0 26 ec bc f4 4d df 3d 48 43 26 3d
       0.057187155 -0.028827071 0.1090354 0.04059151
0003e0 ac a9 90 3d dc 44 e1 bd c0 08 d6 bd 94 f0 12 bd
       0.07063612 -0.10999462 -0.10450888 -0.035873964
0003f0 38 80 5d bd d8 7c 07 3d b6 83 c8 bd bc a1 80 3d
       -0.054077357 0.033078045 -0.09790747 0.062808484

shared.2.bias f4 [64]
000000 28 a8 8a bc 60 e0 8b 3d 02 65 a7 3d 5c 6d 7f bd
       -0.016925886 0.068299055 0.081735626 -0.062360153
000010 f7 f7 29 bc 55 0f c5 bd 56 ec e6 bd ca 8a f3 3d
       -0.010374061 -0.09622065 -0.11275546 0.11891706
000020 6d c2 03 3d e6 0c a2 bf ee 72 b9 3d e6 b1 c7 3d
       0.03216784 -1.2660186 0.09055124 0.09750728
000030 fb df f9 3c ee a4 b3 bf 49 83 e3 3f cc 9b c4 3c
       0.03050231 -1.4034708 1.777444 0.024000071
000040 54 d0 84 3d 5c ee ab 3d 30 95 04 3c 03 94 eb bd
       0.06485048 0.08395073 0.00809221 -0.1150284
000050 86 1a a3 3f ff 6b 3f bd ee fd af 3d 68 e5 88 3c
       1.2742469 -0.046733852 0.08593355 0.016710952
000060 57 28 0d c0 5c 0f b9 bd b6 72 b0 3d d8 5c 34 3d
       -2.2055871 -0.09036133 0.086156294 0.044033855
000070 9d 54 95 3f 5f 15 f6 3f ee 7e 90 3d e2 98 81 3f
       1.1666447 1.9225272 0.0705546 1.0124781
000080 ae b7 7a 3c 4f 1e b2 3d 78 35 78 bd 16 36 d8 bd
       0.015302582 0.08697187 -0.060597867 -0.10557191
000090 ce cd a9 bd 7a a2 db bd 74 6c e2 bd 14 93 dd 3f
       -0.08291207 -0.10724349 -0.11055842 1.731051
0000a0 0d 46 a6 3f a0 c6 12 40 3a e1 89 3d 31 10 bd 3c
       1.2990128 2.293373 0.06732412 0.02307901
0000b0 0a d2 92 3d c0 12 da bd 32 2a 70 3a 00 76 6e 3b
       0.07168968 -0.106481075 0.0009161561 0.0036386251
0000c0 ac b1 2d c0 78 ad b6 3f 5c 54 29 3d 06 d9 99 be
       -2.7139692 1.4271688 0.041340217 -0.30048388
0000d0 38 1b 9a bc 08 f6 ca 3d 78 37 95 bf a9 f7 47 3d
       -0.018811807 0.09910208 -1.1657553 0.04882017
0000e0 0a c9 db bd 98 51 a7 bd 2b 40 1e 40 7f c5 d9 3d
       -0.107317045 -0.0816986 2.4726665 0.106333725
0000f0 26 02 a2 3d 68 0c 48 bd ab 45 6d 3d c6 b2 e4 bd
       0.07910566 -0.048839957 0.05792777 -0.11166911

pattern_head.weight f4 [6, 64]
000000 ce 90 ef bd 90 ee 78 3d d4 50 f0 bd 88 50 c7 3c
       -0.11697541 0.060774386 -0.11734167 0.024330392
000010 c4 a0 b9 bd 9c ee 55 3b 32 5a e6 3d 0e 42 a5 3d
       -0.09063867 0.0032643443 0.11247672 0.080692396
000020 c4 dd 3b bd 09 1f 76 bf 74 2b a1 bd bf 08 34 bc
       -0.04586579 -0.96141106 -0.07869616 -0.010988413
000030 31 42 42 bd ad 61 e9 be 3e cf 18 bd 73 3f 01 3e
       -0.047426406 -0.45582333 -0.037307017 0.1262186
000040 40 42 1f 3b 80 98 b5 bc 68 fb 84 3d 06 2f e0 bc
       0.0024300963 -0.022167444 0.064932644 -0.027366173
000050 f0 24 24 be 5b cc 33 3d 20 7a 13 3c ce ca c2 bd
       -0.16029716 0.04389606 0.009001285 -0.09511338
000060 52 01 3d be 24 a6 2e bd 86 0e f0 bd 02 b6 c4 bd
       -0.18457535 -0.042638913 -0.1172152 -0.09605028
000070 10 5f 24 be e0 5a bd 3e 74 f0 fb bd 06 18 22 3e
       -0.16051888 0.36983395 -0.12301722 0.15829477
000080 27 1c b5 bd f5 ba 41 3c a6 cb c1 3d fc c4 a7 3d
       -0.0884326 0.011824359 0.09462671 0.08191869
000090 96 e9 b7 bd 6a 36 93 3d f6 d6 ba 3d 2a 6e 79 3e
       -0.089801 0.07188113 0.09123032 0.2435843
0000a0 8c 1d cc 3e 6c e7 da 3e d4 c2 b2 bd fc 61 e8 3d
       0.39866292 0.42754686 -0.08728567 0.11346814
0000b0 6a a2 89 3d 18 2f d5 3c 86 2f 95 bd 74 15 ca 3d
       0.06720431 0.026023433 -0.07284455 0.09867373
0000c0 dd 50 f5 bd f1 bb e6 3d 60 10 0e bc df a7 98 be
       -0.11978314 0.11266316 -0.008670896 -0.29815575
0000d0 fa 38 b0 3d ae d2 d3 3d 2a c3 be be 20 12 bd 3b
       0.086046174 0.10342918 -0.37258273 0.005769983
0000e0 66 65 bc 3d e6 14 8b bd aa ef 25 3f 15 23 1b 3c
       0.09199028 -0.067910954 0.64818823 0.009468813
0000f0 40 2a b2 bb 50 83 46 3c 3d d0 51 3d 20 dc 92 bd
       -0.0054371655 0.012116268 0.051223982 -0.07170892
000100 4e 2e da 3d 4e 03 c4 3d 48 76 bb bc 3c a0 75 3d
       0.10653363 0.09570943 -0.02288355 0.059967265
000110 e1 67 c6 3d 0d 41 bc bd 8c 7a 31 bd f0 bd 53 3d
       0.09687782 -0.09192095 -0.04332976 0.05169481
000120 a1 65 84 3d 85 52 14 be c0 a8 36 bc bd 79 91 3d
       0.06464697 -0.14484604 -0.011148632 0.07103298
000130 9e 9d fb 3d 31 fb 26 be 50 13 08 3e a3 bb 05 3e
       0.122859225 -0.1630676 0.13288617 0.13059859
000140 9a 8b f9 bd 88 3f bd 3c 08 28 a8 bd 6d 19 05 3e
       -0.1218483 0.023101583 -0.0821076 0.1299798
000150 d0 1d c8 bd 03 ab 2d 3d 24 69 60 3d 00 ab e0 3b
       -0.09771311 0.042399418 0.05478777 0.0068563223
000160 ae 50 59 bf d4 2b 47 3d b4 dd 26 bd 30 94 d0 3d
       -0.8488873 0.048625782 -0.040738776 0.101845145
000170 db 27 67 3d 72 c2 6b 3e 40 78 7a bb 86 fc 81 3d
       0.056434494 0.23023394 -0.0038218647 0.06346993
000180 8e 7b 82 bd 09 1c d6 3d a2 ef a6 bd 68 46 8b bc
       -0.063712224 0.10454566 -0.08151175 -0.017001346
000190 f8 8c 76 3d a0 e5 16 3c c8 bf e3 bd a0 88 94 3e
       0.060193032 0.00921002 -0.11120564 0.29010487
0001a0 de 87 65 3e 31 25 c3 bd 50 0a de bc c9 f1 12 bb
       0.2241511 -0.09528578 -0.027104527 -0.0022421947
0001b0 f0 18 e0 bd 12 19 f9 3d 85 f1 d7 bd e0 e1 87 bc
       -0.109422565 0.12162985 -0.10544113 -0.016587198
0001c0 62 e0 a6 be 52 c4 e3 3d 00 3b cf 3d a5 86 18 be
       -0.32593066 0.111214295 0.10118675 -0.14895113
0001d0 74 ae a1 bd 1c 69 4a 3d 2f 40 15 be 2b f6 1b 3d
       -0.078946024 0.049416646 -0.14575265 0.03807656
0001e0 b8 3f 57 3d be ce cd bd 71 1a d9 3e 92 fe e0 bc
       0.052551 -0.100491986 0.42402986 -0.027465139
0001f0 ce 81 a0 3d 58 7d 93 3d b3 0a 48 3d 0e 03 ab 3d
       0.07837258 0.07201642 0.04883833 0.08350192
000200 58 b5 73 bd ee 1a a9 bd 88 10 0b 3d 02 44 dd bd
       -0.059499115 -0.082570896 0.033951312 -0.10803987
000210 45 08 1e bc ea 62 1f 3d 7e f7 ec bd f6 69 ec 3d
       -0.009645526 0.03891269 -0.11570643 0.11543648
000220 0b 61 dc bd 92 72 e4 bd 34 b9 da 3d 0f b3 c3 3d
       -0.10760697 -0.11154665 0.10679856 0.09555637
000230 d6 8f a7 bd 7d ca 75 bb 76 46 46 3d dc be 2d bd
       -0.081817314 -0.0037504726 0.04840704 -0.042418346
000240 62 bf 8d bd de e1 86 3d 36 25 bb 3d db 46 e9 bd
       -0.06921269 0.065860495 0.09137957 -0.11390468
000250 36 31 2d bd 89 7a a3 bc c0 3c 1e 3d 08 45 fb 3d
       -0.04228326 -0.01995589 0.038632154 0.12269026
000260 14 95 42 be 78 05 af 3d 58 4e 68 bd c0 1a b9 bb
       -0.19002181 0.08545965 -0.05671534 -0.005648941
000270 15 24 f0 3d d6 78 e7 3c 56 4a f0 3d 93 10 1b 3d
       0.11725632 0.028255861 0.117329285 0.037857603
000280 d0 b6 ba bc b0 ed 0c be c4 34 30 3d 30 58 82 bd
       -0.02279225 -0.13762546 0.04301907 -0.06364477
000290 e0 a4 e8 3d 4c 80 cd 3d 3a e2 ff 3d f4 ac fa 3d
       0.113595724 0.10034236 0.12494321 0.122400194
0002a0 a0 63 43 3e 9c ff c4 3d ec 92 29 bd df e1 c4 3d
       0.19080973 0.09619066 -0.04139988 0.09613394
0002b0 66 98 a9 3d 76 3f b4 3d a1 1c 83 3c 90 19 93 bc
       0.08281021 0.08801167 0.016004862 -0.017956525
0002c0 9d 3d 47 bf 7f 00 04 3e 58 81 b9 bd 6c 88 9f 3c
       -0.7782839 0.12890814 -0.090578735 0.01947423
0002d0 2a 1b c6 3d 98 cd 7e 3d 5b 52 88 3d 1b e9 4d 3d
       0.0967315 0.06220779 0.06656333 0.050271135
0002e0 aa 03 ee 3d ec 39 7b bd 52 1f b3 3d a8 03 02 be
       0.116217926 -0.061334535 0.08746208 -0.12696707
0002f0 c8 51 9c 3c 44 f6 e8 3d 80 30 b3 bd 98 80 b4 bc
       0.019081965 0.113750964 -0.08749485 -0.022033975
000300 c0 c0 fd 3b 60 57 ac bd 5e cc 9c bd 88 f4 bb bc
       0.007743925 -0.08415103 -0.076561674 -0.02294375
000310 84 eb ee ba 6b 33 cf 39 f8 40 17 bd e0 8f 69 bc
       -0.0018228148 0.00039520426 -0.036927193 -0.014255494
000320 75 ef c4 3d 67 85 c6 bd ea 4a ac bd 00 62 8b 3d
       0.09615985 -0.09693413 -0.08412726 0.068058014
000330 b3 da a5 3d 39 d2 a3 3d de b4 c9 3d ab 25 b8 3c
       0.08098354 0.07999081 0.09848951 0.022478899
000340 f0 91 9d 3c 0e d0 f9 3d 58 d0 0e 3d b6 3a d7 3d
       0.019234627 0.121978864 0.03486666 0.10509245
000350 95 5d 89 3d 02 9d 0c 3d 08 61 a7 bd 7c 4f c1 3d
       0.067073025 0.03432942 -0.08172804 0.094389886
000360 c7 bf 5b bd 00 c3 8f 3a 84 32 9d 3d 60 13 8a 3c
       -0.05364969 0.0010968149 0.07675651 0.016854942
000370 1f 2f 1c bd 0a 14 53 bd 8a 47 ff 3d 67 ef b8 3d
       -0.038130876 -0.051532783 0.12464817 0.090300374
000380 4c f5 b5 bc ae 71 5f 3d 98 e6 25 3d c0 01 06 3c
       -0.022211693 0.054551773 0.040503114 0.008179128
000390 d2 2f 99 3d e8 ff e0 3d 84 64 df bd 07 cb 25 bb
       0.07479824 0.1098631 -0.10907844 -0.0025298016
0003a0 47 23 78 3c e0 83 d7 3d 80 cb 66 3c cd b6 93 bc
       0.0151451295 0.105232 0.014086604 -0.018031502
0003b0 08 e5 ae bd 34 04 0e bd a9 a9 fd 3d 74 22 39 bd
       -0.08539778 -0.034671977 0.12385876 -0.045198873
0003c0 1c 63 5b be 7a d0 93 3d f4 b2 06 bd 6f cd 38 3d
       -0.21424526 0.07217498 -0.032885507 0.04511779
0003d0 60 da c2 bd c0 d0 ce bc 35 40 00 bd 0c 54 c6 bd
       -0.09514308 -0.025246024 -0.031311233 -0.096839994
0003e0 66 66 c5 3d b6 9d f6 bd 02 a0 ec be 09 a2 46 3c
       0.096386716 -0.120418 -0.46215826 0.012123593
0003f0 4c 9b a6 bd 40 80 e4 3c 32 0d 8b 3d d2 42 b7 bd
       -0.08135089 0.027893186 0.06789626 -0.08948292

pattern_head.bias f4 [6]
000000 e6 5b 51 3f df 55 43 3f 82 6f 86 3e 5d 62 8b 3e
       0.8178085 0.76302904 0.2625695 0.27223483
000010 8e 0f 6c be 42 f8 a3 bf
       -0.23052809 -1.2810137

sessions_head.weight f4 [8, 64]
000000 d8 19 2b 3d e4 87 71 bd e2 f4 af bd 10 c8 91 bc
       0.041772693 -0.058967486 -0.085916296 -0.017795593
000010 cb be 15 bd 8d ad ab 3d 96 73 ef 3d 90 50 24 bd
       -0.036558907 0.083827116 0.11691968 -0.040115893
000020 84 83 94 3d e6 77 1c be 02 d5 f6 bd 49 ac b8 3d
       0.07251647 -0.15280113 -0.12052347 0.09017236
000030 ac 19 7e bd d1 ec 1a bc df 82 94 3d 1b 82 1d 3d
       -0.0620362 -0.0094558755 0.07251524 0.038454156
000040 62 d7 fd bd 78 df 86 bc 80 8b 89 bd d0 30 86 bc
       -0.12394597 -0.01646398 -0.06716061 -0.016380697
000050 33 f2 5d 3e 89 2e 00 3c 2a 02 e2 3d b0 09 ba 3d
       0.21674423 0.007823595 0.11035569 0.09083879
000060 9a 2f 40 be 0a e3 d6 3d 5c ee 23 bd 00 82 34 3b
       -0.18768159 0.10492523 -0.04002224 0.0027543306
000070 66 48 48 3d c4 1a 5d 3e 3c 8c f8 bd 37 6c 71 bc
       0.04889717 0.21592242 -0.121361226 -0.014735273
000080 4d 7e 2c 3d e7 99 ce 3d 80 74 6d 3c 5a 71 c5 bd
       0.042112637 0.10087948 0.014493108 -0.09640761
000090 20 d2 6d 3c e0 46 75 3d a8 97 13 bd 90 85 63 bd
       0.01451543 0.059882045 -0.036033303 -0.055547297
0000a0 a6 8f c0 bc 65 19 c0 be d4 ee 7e bd ec 90 4a bd
       -0.023505997 -0.37519374 -0.062239483 -0.049454615
0000b0 1c b7 3f bd f6 06 c6 3d db 58 40 bd 18 32 af bd
       -0.046805486 0.096692964 -0.04695974 -0.085544765
0000c0 a6 eb 5e bc be d5 8e 3c c0 b4 22 bd f3 d0 50 bc
       -0.013605988 0.017435905 -0.039723158 -0.01274513
0000d0 8a 40 a9 3d 46 91 e2 bd 54 f6 0c bd e3 df 7a 3d
       0.08264263 -0.11062865 -0.034414604 0.06124867
0000e0 8e ca e5 3d c0 fc a1 3b 7a cc ae 3e fa e9 b9 bb
       0.11220275 0.00494346 0.34140378 -0.005673644
0000f0 6e d2 fe bd 9c 0a b6 bd fb 6d 76 3d 1e 0b e9 bd
       -0.1244248 -0.08888742 0.06016348 -0.113790736
000100 28 89 77 bd 50 f8 2f bd 00 ce 7e bd e8 7e 4a bd
       -0.060433537 -0.04296142 -0.062208176 -0.049437433
000110 8a ed 38 bc 9d fd 83 bd 7c 93 81 bd 4c 58 e6 bd
       -0.0112871025 -0.06444857 -0.063269585 -0.1124731
000120 3d 53 4e bd 43 8f e9 bd 2c eb f6 3d 23 6d 00 3e
       -0.05037235 -0.11404278 0.12056574 0.12541632
000130 1f 82 02 bd 05 3d 28 bd 69 de a2 3d 31 71 f1 3d
       -0.031862374 -0.041073818 0.079525776 0.11789168
000140 02 04 87 3d 4a bf fc bd 38 e4 93 3d ba 70 8b 3c
       0.06592561 -0.12341173 0.07221264 0.017021526
000150 5f 18 12 3e 3c d6 6c 3d d4 ac 78 bd 88 6a 54 bd
       0.1426711 0.057821497 -0.060711697 -0.05185941
000160 71 99 ac bd 64 b3 16 3d 10 99 9d bd ac ed ad bd
       -0.08427704 0.036792174 -0.0769521 -0.08492598
000170 82 fc c2 3d 08 c8 85 3e 12 02 e1 bd 4c 99 e9 bd
       0.09520818 0.26129174 -0.10986723 -0.11406192
000180 1e 52 86 3d d1 6c 54 3d 1c cb 5c 3d b8 f4 b3 3c
       0.06558631 0.051861588 0.053904638 0.021967277
000190 80 f8 39 bb de 9c c8 bd de 3d ea 3d b8 16 ee 3c
       -0.0028376877 -0.09795545 0.114375815 0.029063568
0001a0 af 81 29 bd c2 39 7d be c6 2e d8 bd e0 0f 4d 3d
       -0.04138344 -0.24729064 -0.10555796 0.050063968
0001b0 70 b6 3c bc d8 8b 82 3c da 6a 00 3d 28 35 99 3c
       -0.011518106 0.015935823 0.0313519 0.018702105
0001c0 f7 cf ef bd dd f1 56 bb 30 94 ec 3c f0 9c b5 bb
       -0.11709588 -0.003279797 0.028879255 -0.00554239
0001d0 10 59 aa 3d fc 17 d0 bd 43 90 bd 3c dc 58 0b 3e
       0.083177686 -0.10160825 0.023140078 0.13608116
0001e0 88 19 6e bd 9e 79 91 bd 68 5d 90 3e 60 21 74 3c
       -0.058129817 -0.07103275 0.28196263 0.014900535
0001f0 54 6c dc 3d 64 1a e5 bd 4c 9a dc bd 58 d3 c6 bc
       0.107628495 -0.11186674 -0.10771617 -0.024270698
000200 c0 58 d3 bc 64 5c 03 3d ac e2 0d bd 84 2e 75 bd
       -0.025799155 0.032070532 -0.03464 -0.059858814
000210 14 80 ce 3d 4f 81 a1 bd 84 2d 54 bd 96 b3 d8 bd
       0.10083023 -0.07885992 -0.05180122 -0.10581128
000220 a9 90 d9 bb da c5 09 3e d8 7a be bc 2d 75 a2 3d
       -0.0066395593 0.1345438 -0.023251936 0.07932506
000230 de 4a f6 3d 41 20 43 3e ee f4 84 3d e8 eb 05 3d
       0.120259985 0.19055273 0.06492029 0.03269568
000240 d4 0f 56 bd 9c b3 a8 3d 86 4a ef 3d 85 96 d3 bc
       -0.05226119 0.08237383 0.11684136 -0.02582861
000250 0d f7 50 3e 15 fd a9 bd 18 5d db bd 12 14 cd 3d
       0.20406742 -0.08300225 -0.107111156 0.10013594
000260 c7 23 fc be a0 47 b2 bd c2 aa ba 3d 22 fa ea 3d
       -0.49246046 -0.08705068 0.09114601 0.1147349
000270 5f e5 5b 3d 81 24 16 3c 84 dd 25 bd 43 10 d8 bd
       0.053685542 0.009163977 -0.040494457 -0.10549977
000280 3d fd 37 bd fe d1 ae 3d 40 70 13 bd 7c af 33 bd
       -0.04491924 0.085361466 -0.03599572 -0.043868527
000290 88 c5 c0 bc c0 b8 63 3d d0 73 e1 3c 1d 9f 2b bc
       -0.02353169 0.055596113 0.027521044 -0.010474947
0002a0 21 3a 5b 3b 30 21 5f bf 00 5e 95 ba d4 75 ca 3c
       0.0033451396 -0.87160015 -0.0011395812 0.024714388
0002b0 f0 ed 57 bd 6c c6 6a 3d 6b da 1f bd c4 3e 98 3d
       -0.05271715 0.057318136 -0.03902666 0.074338466
0002c0 cb 8d 4d be 04 13 bc 3c 8c b8 7d 3d 81 4a a1 3d
       -0.20073621 0.022958286 0.061943576 0.078755386
0002d0 de ee a1 bd 00 87 45 3d 61 25 cc 3d f7 4c 5a 3d
       -0.079068884 0.04822445 0.09968067 0.053296056
0002e0 90 bd 53 3c 8e 5d c8 bd c7 6d 95 3e b6 77 c6 3d
       0.012923613 -0.09783469 0.29185316 0.09690802
0002f0 68 60 88 bd b0 8f ec bc c1 64 a9 bd 5c 0f 1e 3d
       -0.06659013 -0.02887711 -0.082711704 0.038588867
000300 c0 d5 d3 3c 10 4e e0 3c 8a af f2 bd 98 59 db bc
       0.02585876 0.027380973 -0.11849888 -0.02677612
000310 45 58 68 bd fe 97 09 bd 20 9b df 3c a2 fb fc 3d
       -0.056724805 -0.033592217 0.027295649 0.12352683
000320 63 95 ed bd 49 43 81 3e 00 51 ad 3b 5a b6 73 3d
       -0.11600759 0.25246647 0.005289197 0.059500076
000330 30 c4 97 bd 03 3c a0 3d cc 61 9f 3d 2c 1d 9f 3d
       -0.07410467 0.07823946 0.07782325 0.07769236
000340 b0 cd c5 3c fe 12 dd bd 6c 42 a0 3d ad 1f 4a 3d
       0.024145931 -0.10794638 0.07825169 0.049346615
000350 5f da 1a 3e 89 4f 27 3c 20 a4 f8 bd c4 84 b6 3d
       0.15122364 0.010211834 -0.12140679 0.08912042
000360 78 6c 33 3e 22 1c b6 bd 8a 70 c8 bd e0 ec cb bc
       0.17521846 -0.08892085 -0.0978709 -0.024893224
000370 69 81 84 3d 78 4b 0b bd e2 b0 d4 3d bb e0 ba 3e
       0.064699955 -0.03400752 0.103853 0.3649958
000380 90 2b 73 3d 76 db 67 3d 30 d7 98 3d a0 b5 3e 3d
       0.059367716 0.05660578 0.07462919 0.04655993
000390 a8 96 d8 bd c0 34 78 3d 00 5b 86 bb 21 aa a3 3c
       -0.105756104 0.06059718 -0.0041002035 0.019978585
0003a0 39 ed a2 bd 81 aa 4f 3f 50 b8 b2 bc b1 6e dc bd
       -0.07955403 0.81119543 -0.021816403 -0.107633
0003b0 5c f4 02 bd 16 a8 b9 3d 0e c0 3d 3d 7e bc 9d 3d
       -0.03197132 0.09065263 0.046325736 0.07701968
0003c0 5a f8 85 bf 20 9e bf bd 98 6a d4 3d 4c 92 54 3d
       -1.0466416 -0.09356332 0.10371894 0.051897332
0003d0 9e ec c4 bd a0 1f b1 bd 0c 6a 1a 3e fa 70 ae bd
       -0.09615444 -0.0864861 0.15079516 -0.08517642
0003e0 f0 f0 21 bc 00 7a bf 39 19 74 73 bf c4 bc 0d 3d
       -0.009884104 0.00036521256 -0.95099026 0.03460385
0003f0 54 4c c2 bd 4a 53 c8 bd cc 36 ab bc bc d9 56 3d
       -0.09487215 -0.09781511 -0.020900153 0.05245374

sessions_head.bias f4 [8]
000000 f7 28 9e 3f c1 24 a6 3f 29 e6 29 3f 97 62 87 bd
       1.2356251 1.2979966 0.6636682 -0.066106014
000010 c4 c2 a0 be 27 dc a4 be 50 73 b5 bf a5 b6 9f bf
       -0.31398594 -0.32199213 -1.4175816 -1.2477614

breaks_head.weight f4 [2, 64]
000000 a4 e9 09 3d 78 94 df 3c 58 c8 ae 3d c0 a0 3a 3d
       0.033670083 0.027292475 0.08534306 0.04556346
000010 53 d7 d2 3d 9a f0 5a bd a0 d1 8f 3b 78 2f c6 bc
       0.10294976 -0.05345211 0.004389003 -0.024192557
000020 73 42 74 bd fb 3a e6 3c c0 50 3f bd 8c c8 6c bd
       -0.059633683 0.028104296 -0.04670787 -0.057808444
000030 5b 3e 96 bd 02 e2 0a bd ee 2f 87 3d 3a 8c 62 3d
       -0.07336112 -0.033906944 0.06600939 0.05530951
000040 8c 23 f6 3d 04 d2 86 3d 34 b0 c5 3d 62 24 0d bd
       0.12018499 0.06583026 0.09652749 -0.034458525
000050 34 8e 92 bd ff ba e7 ba 3a b6 8d bd e6 88 90 3d
       -0.07156029 -0.001767963 -0.069195226 0.07057361
000060 ff f4 4e 3d c0 d5 9a 3d ec eb 5c 3d 18 4b 89 3c
       0.050526615 0.07560301 0.05393593 0.01675944
000070 6c c6 24 3d 04 83 16 3e 42 7b 9c bd ce 91 61 bd
       0.040228292 0.14698416 -0.07640697 -0.05507069
000080 85 2d 47 bd a0 24 26 3d 00 6c d4 b9 88 e4 8e 3c
       -0.048627395 0.040562272 -0.00040516257 0.017442957
000090 a0 db 2b bc 38 85 9f 3c d8 03 e9 bd 20 67 44 3c
       -0.010489374 0.019472703 -0.11377686 0.011987478
0000a0 4e 31 a1 bc d8 f0 a0 bc 62 39 9e bd 79 4c 9e bd
       -0.01967683 -0.019646093 -0.07725789 -0.0772943
0000b0 88 b7 cb bc dc 5f ab 3d f2 41 3e 3d 8e 96 b9 bd
       -0.024867788 0.08367893 0.04644961 -0.09061919
0000c0 e3 5a a8 bc ae 70 16 3a aa 1d b8 bd cf d7 68 bc
       -0.02055115 0.00057388365 -0.08990033 -0.014211609
0000d0 14 15 dd bd f2 54 be 3d 55 1b 9e 3c 88 2b 1d 3d
       -0.10795036 0.09293546 0.019300142 0.038371593
0000e0 64 7a 93 bd 9c 8e dc 3d 8e 1c 15 3d c7 a5 47 3d
       -0.072010785 0.10769388 0.036404185 0.048742082
0000f0 38 ba bb 3c ba 07 fc 3d 00 95 f6 bc 54 42 78 bd
       0.022915944 0.12306161 -0.030100346 -0.06061013
000100 f0 27 ac 3d 00 5f 40 bd 9e 2c bb 3d a8 69 c2 3c
       0.08406055 -0.0469656 0.091393694 0.023732021
000110 ac be 22 bd eb 82 e2 bd 90 11 02 3c 18 e6 b1 3c
       -0.03973262 -0.11060127 0.007938758 0.021716163
000120 8f ee ad 3d e7 c4 ee 3d 32 3b 9e 3d 2a fd 83 bb
       0.08492767 0.1165865 0.07726134 -0.0040279822
000130 f4 42 81 3c 8a b1 3b 3d 71 3e 07 bd a3 d1 39 bd
       0.015778996 0.04582361 -0.033018533 -0.04536594
000140 9e 0b ce bd 8a 67 f0 3d 50 0b dc bd 55 af 96 bd
       -0.100608096 0.117384985 -0.10744345 -0.07357661
000150 58 6b 78 3d 79 0e 84 3b c0 fd 3c 3c 38 9d 85 bd
       0.060649246 0.0040300456 0.011535108 -0.06524128
000160 69 1b 7a be 5c f4 96 3d be 50 a6 bd 00 0f 7a 3b
       -0.24424519 0.073708266 -0.08120869 0.0038155913
000170 61 e8 d9 3d fd d8 b3 bc d0 85 e2 bc c9 7e c2 bd
       0.10640026 -0.021954054 -0.027651697 -0.094968386
000180 0f e9 72 bd 42 00 e5 3c 20 26 76 bc 28 97 07 3d
       -0.059304293 0.027954224 -0.015023738 0.03310314
000190 0a 68 e6 bd 00 a5 b4 3b 80 77 52 bc 28 fe 5f bd
       -0.112503126 0.0055128336 -0.012845874 -0.05468574
0001a0 3e 48 c6 bc 9f d9 b4 be 4c c6 69 bd b7 c8 74 bd
       -0.02420437 -0.35322282 -0.057073876 -0.05976173
0001b0 44 51 be bd ac 5d 72 3d 3c 14 4b bc b6 5d cb 3d
       -0.09292844 0.059171364 -0.012394961 0.09929983
0001c0 1d 4b 3a bd 29 1f f6 3c 9c 7e ae bd 7b b8 20 3b
       -0.04548179 0.030044155 -0.085202426 0.0024524021
0001d0 76 9b db 3d a6 fe 81 3d ae 09 c0 3c 80 9c eb bc
       0.10723011 0.063473985 0.023442116 -0.028761148
0001e0 60 95 9a 3d 00 e0 56 bc cc 1f 4f 3e 43 47 96 bd
       0.07548022 -0.013114929 0.20226973 -0.07337811
0001f0 aa 3e fe 3d e4 68 de 3d 50 d6 cf b8 40 b0 f3 bd
       0.12414296 0.1085985 -9.910448e-05 -0.118988514

breaks_head.bias f4 [2]
000000 47 09 92 3f 34 4b af 3e
       1.1409081 0.34237063
